training/models/emotion_classifier_v2.pt (torch, 402729 bytes, 4 tensors)

net.0.weight f4 [256, 384]
0	0x3c5cba13	0.013472098
1	0xbe60a664	-0.21938473
2	0x3c593d17	0.013259194
3	0xbe253cab	-0.16136424
4	0xbe5f80d8	-0.21826494
5	0x3e16b325	0.14716776
6	0xbe7aef9b	-0.24505465
7	0xbde3513d	-0.11099479
8	0x3d683fe2	0.05670155
9	0xbe1e4196	-0.15454707
10	0xbe559bce	-0.20860216
11	0x3e918261	0.28419784
12	0x3c07fb5c	0.008299675
13	0xbd980013	-0.07421889
14	0x3c9ca5f8	0.019122109
15	0xbc86b99a	-0.016445924
16	0xbdfd3c0b	-0.12364968
17	0xbe06a797	-0.13149868
18	0xbd21f5c4	-0.03954102
19	0x3e8bfd3c	0.2734164
20	0x3d2f644a	0.042820252
21	0xbcfbfc0c	-0.030759834
22	0x3e05e70b	0.13076417
23	0x3e932e85	0.2874643
24	0x3dd2c4ff	0.1029148
25	0xbce527ee	-0.027973142
26	0x3d85f101	0.065401085
27	0x3e3547e9	0.17703213
28	0xbaa4cabd	-0.0012572628
29	0x3e2953db	0.16535895
30	0x3c6f1059	0.0145913
31	0x3e31defc	0.17370218
32	0xbc643b4e	-0.013930155
33	0xbdffe035	-0.12493936
34	0x3e00f4a6	0.12593326
35	0xbe125f4f	-0.1429417
36	0xbe59e27c	-0.21277803
37	0x3d16eb2d	0.036845375
38	0xbe13e8b5	-0.1444424
39	0x3d301391	0.04298741
40	0x3cd4c5f7	0.025973303
41	0xbe53e3b0	-0.20692325
42	0x3e6784c0	0.22609234
43	0xbcccbe7e	-0.024993178
44	0xbe0414cf	-0.12898563
45	0xbd036d69	-0.032086764
46	0x3e52a3d0	0.20570302
47	0xbdfac4ec	-0.12244591
48	0xbe358f9f	-0.17730568
49	0x3a21586f	0.000615484
50	0xbe4db72f	-0.2008941
51	0xbb546373	-0.003240791
52	0x3dfcc880	0.1234293
53	0xbe935751	-0.28777555
54	0xbde9a0f4	-0.114076525
55	0x3be5ceed	0.007013193
56	0xbe9a5e6e	-0.3015017
57	0xbe011af6	-0.12607941
58	0x3e6f4917	0.23367725
59	0x3c310288	0.010803826
60	0xbcdff138	-0.027336702
61	0x3d16e96a	0.036843695
62	0x3c8d4fec	0.017250024
63	0xbbe9c9c5	-0.0071346485
64	0xbe0b2f1b	-0.13592188
65	0xbb9c4125	-0.004768508
66	0xbe3a7153	-0.18207292
67	0x3de0f834	0.10984841
68	0x3b22dd35	0.0024851088
69	0x3c0a87e4	0.00845525
70	0xbdbd4f4e	-0.09243642
71	0x3e4c9aeb	0.19980972
72	0xbd2e2390	-0.042514384
73	0xbdd27c4b	-0.10277613
74	0xbe7f2c7e	-0.24919316
75	0xbcb5bcf6	-0.02218483
76	0x3dac86a1	0.08424116
77	0xbd6025d8	-0.05472359
78	0xbddc55c7	-0.10758548
79	0xbd0908f8	-0.03345582
80	0x3e64d4cc	0.223468
81	0x3d1c2d37	0.038129058
82	0xbec27c79	-0.3798559
83	0x3e495d4d	0.19664498
84	0x3d83eb61	0.06441379
85	0xbe0f49f9	-0.13993062
86	0x3e4db332	0.20087889
87	0xbd31cb1c	-0.04340659
88	0x3e4088ee	0.18802235
89	0xbe2cd32a	-0.16877428
90	0x3e30c80b	0.1726381
91	0x3dc06a03	0.0939522
92	0xbda43ec5	-0.08019785
93	0xbd0e0b55	-0.034678776
94	0xbc41cd75	-0.01182877
95	0x3d14abb1	0.03629655
96	0x3d96c1ba	0.07361169
97	0xba3b8e82	-0.0007154719
98	0xbd304116	-0.04303082
99	0x3d9d678a	0.07685764
100	0x3e4d42ce	0.20045015
101	0xbbb60dda	-0.0055558505
102	0xbe9fa41a	-0.31179887
103	0x3e71421d	0.23560376
104	0x3e9b4e50	0.30333185
105	0x3e33a5b6	0.17543682
106	0xbe950585	-0.29105774
107	0x3e412480	0.1886158
108	0x3dcd8f5d	0.1003711
109	0x3c5c84a0	0.013459355
110	0x3e0cb0ff	0.13739394
111	0x3b9a8542	0.0047155926
112	0xbcb55d14	-0.02213911
113	0xbe6ea33a	-0.23304453
114	0xbe0882b3	-0.13331108
115	0xbe0d4df7	-0.13799272
116	0x3b319fda	0.0027103336
117	0xbe1b6370	-0.15174651
118	0xbddb4023	-0.107055925
119	0x3e820466	0.2539398
120	0xbceca3e5	-0.028886745
121	0xbe7ee933	-0.24893646
122	0xbe2de0b8	-0.16980255
123	0xbdf93753	-0.121687554
124	0xbdefee46	-0.11715369
125	0x3e0cfac8	0.1376754
126	0x3be35512	0.0069376314
127	0x3dc10fdf	0.09426855
128	0xbcc631b0	-0.024193615
129	0x3ec4e242	0.3845387
130	0x3e367cc8	0.17821038
131	0xbdfbf9ba	-0.12303491
132	0xbd49eedc	-0.04930006
133	0x3d246d1f	0.04014313
134	0xbd0fc36c	-0.03509848
135	0x3dac0ab2	0.084004775
136	0xbd623211	-0.05522353
137	0xbd47ff6f	-0.048827585
138	0x3e4d07af	0.20022462
139	0x3e9f51c7	0.3111708
140	0x3d045e7f	0.03231668
141	0x3e5aaaa1	0.21354152
142	0xbd93de66	-0.072201535
143	0x3d69ca7c	0.05707787
144	0xbddb78f6	-0.10716431
145	0x3c275a34	0.010214377
146	0xbde46832	-0.11152686
147	0xbde9c466	-0.11414413
148	0xbdf25fb8	-0.11834663
149	0x3dec97c0	0.115523815
150	0x3e3b08bf	0.18265055
151	0x3d9b0ed9	0.07571191
152	0xbe110928	-0.14163649
153	0xbc8d002c	-0.017211996
154	0xbdb0a51f	-0.08625244
155	0xbd19c9b0	-0.03754586
156	0xbe85e355	-0.26150003
157	0xbde63333	-0.11240234
158	0x3db24829	0.0870517
159	0xbd73e0f3	-0.0595407
160	0x3e3b4afe	0.18290326
161	0x3d0209bd	0.03174757
162	0x3ee0ab02	0.4388047
163	0xbddb2333	-0.10700073
164	0x3e1f750c	0.15571994
165	0xbce1ab5a	-0.027547527
166	0x3e070568	0.13185656
167	0xbe0578af	-0.13034318
168	0xbdee4fd1	-0.116363175
169	0xbe0844a2	-0.13307431
170	0x3c99bcb8	0.018766746
171	0x3e756ce2	0.23967317
172	0xbdcd3dd2	-0.10021557
173	0x3d8b4654	0.068005234
174	0x3cc60886	0.024173986
175	0x3da6589c	0.0812237
176	0x3e357866	0.1772171
177	0xbe4f51df	-0.20246075
178	0x3d721394	0.059100702
179	0x3e91116e	0.2833361
180	0xbe4e90ff	-0.20172499
181	0x3dfae6e0	0.12251067
182	0x3e827874	0.25482523
183	0xbe7f1627	-0.24910794
184	0xbc939445	-0.018015036
185	0x3e6e76fc	0.23287576
186	0xbce806f6	-0.028323632
187	0xbe09a381	-0.13441278
188	0xbe15bc42	-0.14622596
189	0x3d50e9b0	0.05100411
190	0x3d32b1dd	0.043626655
191	0x3d13181b	0.03591166
192	0xbe8c9b99	-0.27462462
193	0xbdc50584	-0.09620193
194	0xbe623708	-0.22091305
195	0x3abcf4f4	0.0014416263
196	0x3e747783	0.23873715
197	0xbdc85f16	-0.09783761
198	0x3db65c05	0.0890427
199	0x3c154f01	0.009113074
200	0x3d38dfa2	0.045135148
201	0xbe5f89c4	-0.21829897
202	0x3e328164	0.17432171
203	0x3dc2c2de	0.09509824
204	0xbc08d9b4	-0.008352686
205	0xbc0f7715	-0.008756419
206	0x3c060596	0.008180043
207	0x3e8b594c	0.27216566
208	0x3d59c730	0.053168476
209	0xbe38012e	-0.179692
210	0x3e6c2d8a	0.23064247
211	0xbd2734c4	-0.040821806
212	0xbda8611b	-0.082216464
213	0x3ce7c9e4	0.028294511
214	0x3db18b65	0.086691655
215	0x3d9a2754	0.075270325
216	0x3e87ef87	0.26549932
217	0xbddaa6ab	-0.10676321
218	0x3d8afa8c	0.06786069
219	0xbd5bb671	-0.053640787
220	0xbddb3f8e	-0.107054815
221	0xbda92510	-0.08259022
222	0xbd00d4d7	-0.03145298
223	0x3cf76329	0.03019865
224	0x3e0913c5	0.13386448
225	0x3ed74030	0.4204116
226	0x3cddeb42	0.027089719
227	0xbe05b061	-0.13055564
228	0x3e2ecc36	0.17070088
229	0xbe41fc3b	-0.18943875
230	0xbd1b280f	-0.03788
231	0x3e16d3ed	0.14729281
232	0x3d345427	0.044025566
233	0x3e8882e3	0.2666236
234	0x3dbd579a	0.09245224
235	0xbe2c76ea	-0.16842237
236	0x3d97b34e	0.074072465
237	0xbec4ba41	-0.3842335
238	0xbe099e32	-0.13439253
239	0xbe2c5a04	-0.16831213
240	0xbccfc181	-0.025360825
241	0xbcc716e5	-0.02430291
242	0xbe207b4b	-0.15672033
243	0x3cad8d4b	0.021185538
244	0xbcd2f154	-0.02574984
245	0x3e60be2b	0.21947543
246	0xbcf8ef53	-0.030387556
247	0xbdebdda9	-0.11516888
248	0xbe777b9f	-0.24168251
249	0x3d5b370e	0.0535193
250	0x3daba3d6	0.083808586
251	0x3e436902	0.19083026
252	0x3e76a340	0.24085712
253	0xbe13e6b3	-0.14443474
254	0x3e52fbc7	0.20603858
255	0xbe03c3c4	-0.12867647

net.0.bias f4 [256]
0	0xc0c3ac7a	-6.1148043
1	0xc0c1eaec	-6.059927
2	0xc0c00204	-6.000246
3	0xc0a91c49	-5.284703
4	0xc0a8f811	-5.2802815
5	0xc0a5eb6a	-5.184987
6	0xc0c155ad	-6.0417085
7	0xc0b5a388	-5.6762123
8	0xc0a88e93	-5.267404
9	0xc09b7817	-4.8584094
10	0xc0a01b64	-5.0033436
11	0xc0accbe1	-5.3998876
12	0xc0a9865c	-5.2976513
13	0xc0adb823	-5.4287276
14	0xc0ad6664	-5.418749
15	0xc0aa9807	-5.331058
16	0xc0b03673	-5.5066466
17	0xc0a3928b	-5.1116385
18	0xc0b9902f	-5.7988505
19	0xc0b4eb25	-5.653704
20	0xc0a0892c	-5.0167446
21	0xc09495ee	-4.643302
22	0xc0b4d6d4	-5.651224
23	0xc0b64e19	-5.6970334
24	0xc0a8049b	-5.250562
25	0xc08646b3	-4.1961303
26	0xc0b0685c	-5.512739
27	0xc0c21c87	-6.0659823
28	0xc0b1c5e4	-5.5554066
29	0xc0b22f8d	-5.5683045
30	0xc0c1e770	-6.0595016
31	0xc0be4cf4	-5.9468937
32	0xc0b6b3ea	-5.709462
33	0xc0a2e6e2	-5.090684
34	0xc0a58dab	-5.1735435
35	0xc0b0339f	-5.5063014
36	0xc0b21908	-5.5655556
37	0xc0c1be04	-6.0544453
38	0xc0977af3	-4.7337584
39	0xc0b2e858	-5.5908623
40	0xc0c02e72	-6.0056696
41	0xc0c161ad	-6.0431733
42	0xc0b3188f	-5.596748
43	0xc0b29ee8	-5.5818977
44	0xc0baee79	-5.8416104
45	0xc0b5457a	-5.664731
46	0xc0adfbf1	-5.4370046
47	0xc07cc38d	-3.9494355
48	0xc0bb2801	-5.8486333
49	0xc0a86954	-5.2628574
50	0xc0b7002a	-5.71877
51	0xc0b0ffc9	-5.531224
52	0xc09a6f4f	-4.8260875
53	0xc0c572b1	-6.1702504
54	0xc0b62eda	-5.693219
55	0xc0a942a2	-5.289384
56	0xc0c08833	-6.016626
57	0xc093ef18	-4.6229362
58	0xc0a9b91c	-5.3038464
59	0xc0b9f2b9	-5.810879
60	0xc0aa052d	-5.313132
61	0xc0adc672	-5.4304743
62	0xc0a8fd3e	-5.2809134
63	0xc0a546d2	-5.164895
64	0xc0bb8ea5	-5.8611627
65	0xc0323471	-2.7844508
66	0xc09f23fa	-4.9731417
67	0xc0b0dcc8	-5.526951
68	0xc0b784bd	-5.7349534
69	0xc0beafe5	-5.9589715
70	0xc0bd68fd	-5.919066
71	0xc0be84ff	-5.953735
72	0xc0bb5b05	-5.854861
73	0xc090c58c	-4.5241146
74	0xc0a86f1f	-5.2635646
75	0xc0b7d903	-5.7452407
76	0xc0b5ef59	-5.6854672
77	0xc0a9762e	-5.295676
78	0xc0bab329	-5.83437
79	0xc0bbe420	-5.8715973
80	0xc0a2950b	-5.0806937
81	0xc0c2dcfb	-6.089475
82	0xc0b24499	-5.5708737
83	0xc0bc6a65	-5.8879876
84	0xc0a5a5f1	-5.1765065
85	0xc0ba67a7	-5.825153
86	0xc0b4aa93	-5.645822
87	0xc0c34124	-6.1017017
88	0xc0a31516	-5.096324
89	0xc0bf24bb	-5.9732337
90	0xc0abb035	-5.3652596
91	0xc0b2404d	-5.570349
92	0xc0ac2807	-5.379886
93	0xc0b5414e	-5.664222
94	0xc0a404f0	-5.1256027
95	0xc0b71f46	-5.7225676
96	0xc0a7476c	-5.2274685
97	0xc0aea1dd	-5.4572587
98	0xc0b30d4c	-5.595373
99	0xc0bf5b8f	-5.9799266
100	0xc0adcaf2	-5.4310236
101	0xc0a86ecd	-5.2635255
102	0xc0b781d9	-5.7346005
103	0xc0ae7f83	-5.4530654
104	0xc0b681ca	-5.7033434
105	0xc0a5239b	-5.1605964
106	0xc0910fa9	-4.5331616
107	0xc0b75b16	-5.729869
108	0xc0bc24fa	-5.8795137
109	0xc096a689	-4.707829
110	0xc0b55acd	-5.667334
111	0xc0b8d88b	-5.7764335
112	0xc0bb5e8f	-5.855293
113	0xc0aeeb77	-5.4662433
114	0xc0b6f960	-5.7179413
115	0xc0a7b2c9	-5.2405744
116	0xc0ac3f16	-5.382701
117	0xc09415ab	-4.627645
118	0xc0b568d4	-5.6690464
119	0xc0c4e158	-6.152508
120	0xc0b1fb1c	-5.561903
121	0xc0b678b2	-5.7022333
122	0xc09edb24	-4.9642506
123	0xc0953aea	-4.6634417
124	0xc0b41629	-5.627705
125	0xc0b9ad70	-5.8024216
126	0xc0a5641f	-5.168472
127	0xc0b9868f	-5.7976756
128	0xc0b6acdd	-5.7086015
129	0xc0a98375	-5.297297
130	0xc0ab8222	-5.3596354
131	0xc08d9a4d	-4.4250855
132	0xc0c1b324	-6.0531178
133	0xc0adaf99	-5.4276853
134	0xc0ab5a9f	-5.354812
135	0xc0b9b5a2	-5.803422
136	0xc0a0013d	-5.000151
137	0xc092b42c	-4.5844936
138	0xc0ad4bdf	-5.4155116
139	0xc09861b6	-4.7619276
140	0xc0af1b38	-5.4720726
141	0xc0bf1819	-5.9716916
142	0xc0ba3e68	-5.820118
143	0xc0aa1f37	-5.3163104
144	0xc0b89285	-5.7678857
145	0xc0be64d0	-5.949806
146	0xc0a00814	-5.000986
147	0xc0aa4d64	-5.321947
148	0xc0b6f293	-5.717111
149	0xc0a84ded	-5.2595124
150	0xc0aef1bc	-5.4670086
151	0xc0ae203d	-5.4414353
152	0xc0bd4de1	-5.9157567
153	0xc0ab0e43	-5.345491
154	0xc0b6541d	-5.6977677
155	0xc0a9ff3f	-5.312408
156	0xc09c06b6	-4.875819
157	0xc0bf4883	-5.9776015
158	0xc092ffd6	-4.59373
159	0xc0b29bfb	-5.5815406
160	0xc0a2d380	-5.088318
161	0xc0b54dc6	-5.665744
162	0xc0b2c093	-5.5860076
163	0xc0c4273d	-6.12979
164	0xc0ae98ca	-5.456151
165	0xc0bc8c7b	-5.8921485
166	0xc0ab5543	-5.354158
167	0xc0a46939	-5.1378446
168	0xc0af807e	-5.484435
169	0xc0ac8429	-5.391133
170	0xc0b055e8	-5.5104866
171	0xc0b6f903	-5.717897
172	0xc0b174e2	-5.545518
173	0xc0b98abd	-5.798186
174	0xc0b28e73	-5.579889
175	0xc0aa4d35	-5.3219247
176	0xc0b2f9f2	-5.593011
177	0xc0babb5b	-5.8353705
178	0xc0ba4a4f	-5.821571
179	0xc0b2993d	-5.581206
180	0xc08dea4b	-4.43485
181	0xc0b8eafa	-5.7786837
182	0xc0a35f38	-5.1053734
183	0xc0b91525	-5.783831
184	0xc0b0cac7	-5.524753
185	0xc0ae53ca	-5.447728
186	0xc0946039	-4.636746
187	0xc0b8b585	-5.772158
188	0xc0ae0dc2	-5.4391794
189	0xc0b7358b	-5.725286
190	0xc0b6402b	-5.695333
191	0xc09793d3	-4.736795
192	0xc0c0f33d	-6.029692
193	0xc0bb6e5a	-5.8572206
194	0xc0c09215	-6.0178323
195	0xc0b44194	-5.633005
196	0xc0afaac8	-5.4895973
197	0xc0a8c4bc	-5.2740154
198	0xc08e6d05	-4.450808
199	0xc0b175db	-5.5456367
200	0xc0aa6740	-5.3251038
201	0xc0b4d148	-5.650547
202	0xc09e4198	-4.945507
203	0xc0a90036	-5.2812757
204	0xc0b8a65a	-5.7703066
205	0xc0bab481	-5.834534
206	0xc0ac7cea	-5.3902483
207	0xc0a667cf	-5.200172
208	0xc0ad488f	-5.4151073
209	0xc09e5e0b	-4.94898
210	0xc09d643f	-4.918487
211	0xc0b32289	-5.5979657
212	0xc09ef3fe	-4.967284
213	0xc0c003d0	-6.0004654
214	0xc0a5ed64	-5.1852283
215	0xc09f46dd	-4.9774003
216	0xc0a0dec5	-5.0271935
217	0xc09e938c	-4.955511
218	0xc0bbe1c9	-5.8713117
219	0xc08c8b4f	-4.3920054
220	0xc0adf4ad	-5.4361176
221	0xc0a29ee2	-5.081895
222	0xc0b3350f	-5.600227
223	0xc0c6ec07	-6.216312
224	0xc0a9b6d2	-5.303567
225	0xc091e770	-4.5595016
226	0xc0bdba9a	-5.9290285
227	0xc0bde15f	-5.933761
228	0xc0a948af	-5.2901225
229	0xc0b13862	-5.5381327
230	0xc0a7e757	-5.2469897
231	0xc0a6468d	-5.196112
232	0xc0bc4783	-5.8837295
233	0xc0a62247	-5.1916842
234	0xc0924404	-4.5708027
235	0xc0a90c55	-5.2827554
236	0xc0abac6b	-5.364797
237	0xc0c1fd51	-6.0621724
238	0xc0b8cf5f	-5.775314
239	0xc0b67fd9	-5.7031064
240	0xc0b57922	-5.6710367
241	0xc08c7795	-4.3895974
242	0xc0bd20c7	-5.910251
243	0xc0b39efc	-5.6131573
244	0xc0b5cdce	-5.6813726
245	0xc0c0f840	-6.030304
246	0xc0963fb8	-4.695278
247	0xc0aea27b	-5.457334
248	0xc0a8e225	-5.2776055
249	0xc0b3c900	-5.618286
250	0xc0b0ab88	-5.520939
251	0xc0baf920	-5.842911
252	0xc0aed1d3	-5.4631133
253	0xc0afdea3	-5.4959273
254	0xc0a8519d	-5.2599626
255	0xc0ae896e	-5.454276

net.3.weight f4 [5, 256]
0	0xbe0e507f	-0.13897894
1	0xbe066c88	-0.13127339
2	0xbd9ded1a	-0.07711239
3	0xbcd354b4	-0.025797226
4	0xbd36e7df	-0.044654723
5	0x3923406a	0.00015568887
6	0xbdec2df6	-0.11532204
7	0xbdd6bb75	-0.10484973
8	0xbdcd6acf	-0.10030138
9	0xbd69d55c	-0.05708824
10	0xbd0481be	-0.032350294
11	0xbd89563a	-0.067058995
12	0x3b3ce5a7	0.0028823407
13	0xbd2fe311	-0.042941157
14	0xbd64b15f	-0.055833217
15	0xbdab775a	-0.08372374
16	0xbdc4938c	-0.09598455
17	0xbd937839	-0.07200665
18	0xbdc10a3c	-0.0942578
19	0xbda9fee2	-0.08300568
20	0xbc10691f	-0.008814125
21	0xbdc8857b	-0.097910844
22	0xbd64d03e	-0.055862658
23	0xbde3661c	-0.1110346
24	0xbcefd1ad	-0.029274786
25	0xbdc0b09f	-0.09408688
26	0xbdad9400	-0.084754944
27	0xbcf9b9e9	-0.030484157
28	0xbdec231e	-0.115301356
29	0xbd849d38	-0.064752996
30	0xbda63745	-0.081160106
31	0xbded2c38	-0.115807
32	0xbd125dda	-0.035734035
33	0xbdbf3a0a	-0.09337242
34	0xbd75ab00	-0.05997753
35	0xbd9255f0	-0.071452975
36	0xbd9727df	-0.07380652
37	0xbdfdf52a	-0.12400277
38	0x3b3589b0	0.0027700476
39	0xbda56361	-0.08075596
40	0xbd8f9506	-0.07010846
41	0xbe0dcb3e	-0.13847062
42	0xbdb442dc	-0.08801815
43	0xbda98d09	-0.082788534
44	0xbdeddd22	-0.11614443
45	0xbe002571	-0.12514283
46	0xbde6dbac	-0.11272368
47	0xbd74ab8f	-0.059733924
48	0xbdff802e	-0.1247562
49	0xbc653e25	-0.013991867
50	0xbdc1fcaa	-0.0947202
51	0xbd0409f6	-0.032236062
52	0xbc8f10bf	-0.01746404
53	0xbe305c5f	-0.17222737
54	0xbd84a145	-0.06476072
55	0xbdcc46df	-0.09974455
56	0xbd85df92	-0.06536783
57	0xbda37e89	-0.07983119
58	0xbcb92ae0	-0.022603452
59	0xbd4f7333	-0.050646972
60	0xbdb2c451	-0.08728851
61	0xbd72dbf5	-0.0592918
62	0xbcc008e3	-0.023441738
63	0xbd0daead	-0.034590412
64	0xbdc7c340	-0.09754038
65	0x3bada6a8	0.005299408
66	0xbd4c0b02	-0.049815185
67	0xbdbaa201	-0.09112931
68	0xbd499066	-0.049209975
69	0xbdf455f3	-0.11930456
70	0xbdd9dd5b	-0.10637923
71	0xbdcf6463	-0.10126569
72	0xbdfc2b0a	-0.123128965
73	0x3c245699	0.010030412
74	0xbd0e7cdf	-0.034787055
75	0xbde31d71	-0.110896
76	0xbcbffe78	-0.02343677
77	0xbd974842	-0.07386829
78	0xbdf371cc	-0.118869394
79	0xbe151271	-0.14557816
80	0xbccdb9bf	-0.025112985
81	0xbe2e6161	-0.17029335
82	0xbca709e5	-0.02039046
83	0xbd93a967	-0.07210045
84	0xbdb32947	-0.087481074
85	0xbd6664f0	-0.056248605
86	0xbd62fdc6	-0.0554178
87	0xbd80029c	-0.06250498
88	0xbaa0894f	-0.0012247952
89	0xbe1778c2	-0.14792159
90	0xbd3a7c19	-0.045528505
91	0xbc0bcbe5	-0.008532499
92	0xbd3c0097	-0.045899
93	0xbda32d0d	-0.07967577
94	0x3c257b7f	0.010100245
95	0xbd026c12	-0.031841345
96	0xbdc91def	-0.098201625
97	0xbd693096	-0.0569311
98	0xbd7f29af	-0.062295612
99	0xbd56e040	-0.052459955
100	0xbd73d386	-0.059527896
101	0xbd44f4ff	-0.04808521
102	0xbd48b1db	-0.04899774
103	0xbd9efb24	-0.07762745
104	0xbdbb7dd1	-0.09154857
105	0xbcc3a538	-0.023882493
106	0xbd9ddf6e	-0.077086315
107	0xbde97519	-0.11399288
108	0xbdfaaef2	-0.122403994
109	0xbc82a746	-0.015948903
110	0xbdbe62aa	-0.092961624
111	0xbdb7524a	-0.08951242
112	0xbe1b3c5b	-0.15159743
113	0xbda340bb	-0.07971331
114	0xbd68840f	-0.056766566
115	0x3bb7f6d3	0.0056141405
116	0xbc78d97a	-0.015188569
117	0xbd522571	-0.05130524
118	0xbda8ed6f	-0.08248412
119	0xbdb3cf18	-0.087797344
120	0xbd86fe7a	-0.06591506
121	0xbdf2808d	-0.11840925
122	0xbc880310	-0.016603023
123	0xbce46c4f	-0.027883677
124	0xbdaec57b	-0.0853376
125	0xbe185431	-0.14875866
126	0xbd9e0dcc	-0.07717475
127	0xbe269951	-0.16269423
128	0xbdc6d61e	-0.09708808
129	0xbda0e7f8	-0.078567445
130	0xbdadf2b6	-0.08493559
131	0xbc9963fd	-0.018724436
132	0xbe3f5211	-0.1868365
133	0xbd1d13c2	-0.03834892
134	0xbd91dab4	-0.071217924
135	0xbe2cf43f	-0.16890047
136	0xbc728074	-0.014801133
137	0xbd3b4d20	-0.04572785
138	0xbd843c59	-0.06456823
139	0xbd68f944	-0.056878343
140	0xbdd56e76	-0.104214594
141	0xbdb1125f	-0.08646082
142	0xbdf87267	-0.121311955
143	0xbd844d72	-0.06460084
144	0xbdd07583	-0.101786636
145	0xbe3987cc	-0.18118209
146	0xbdde6cc6	-0.10860591
147	0xbce31d0e	-0.027723815
148	0xbdf2a110	-0.118471265
149	0xbdbdc3a6	-0.092658326
150	0xbdc81ecb	-0.09771498
151	0xbdaad1b5	-0.0834078
152	0xbdbbc408	-0.09168249
153	0xbde2eadc	-0.11079952
154	0xbe07b87b	-0.13253967
155	0xbcae4e1d	-0.021277482
156	0xbd0aaf77	-0.033858743
157	0xbd38c6c0	-0.045111418
158	0x3cdbc794	0.026828565
159	0xbda6da93	-0.081471585
160	0xbcecf84a	-0.028926987
161	0xbd7bfa5e	-0.061518066
162	0xbddea87d	-0.1087198
163	0xbdb017d2	-0.08598293
164	0xbdbbbf2a	-0.09167321
165	0xbd7bec79	-0.061504815
166	0xbd866cb8	-0.06563705
167	0x3bfe0605	0.0077521824
168	0xbd0ed726	-0.03487315
169	0xbd5e5cad	-0.0542876
170	0xbd04497b	-0.03229664
171	0xbdca63d4	-0.09882322
172	0xbdac50ce	-0.0841385
173	0xbdfe2dae	-0.124110565
174	0xbdff9de6	-0.124812886
175	0xbd9a9b93	-0.07549205
176	0xbd89fb18	-0.067373455
177	0xbdebfb2f	-0.11522519
178	0xbdd3b7a2	-0.103377596
179	0xbd98cd66	-0.07461052
180	0xbdba898e	-0.09108268
181	0xbdaf8f74	-0.085722834
182	0xbc89b15c	-0.016808204
183	0xbdcb38e5	-0.09922961
184	0xbe085835	-0.13314898
185	0xbda6acdd	-0.0813844
186	0xbc4ecc50	-0.012621954
187	0xbd3f06e7	-0.046637442
188	0xbd7bb95a	-0.061456062
189	0xbdd5cd24	-0.10439518
190	0xbdb54f6c	-0.08853039
191	0xbd611e33	-0.05496044
192	0xbde6cbbd	-0.11269329
193	0xbe09ba2c	-0.13449925
194	0xbdd01dfe	-0.101619706
195	0xbd2c6631	-0.042089645
196	0xbdae8600	-0.08521652
197	0xbde21095	-0.11038319
198	0xbc5989a9	-0.01327745
199	0xbdc2ea35	-0.09517328
200	0xbdc64865	-0.09681777
201	0xbde451a9	-0.11148388
202	0xbd64943c	-0.05580543
203	0xbd99732c	-0.074926704
204	0xbdb759e2	-0.08952691
205	0xbcec635c	-0.028855972
206	0xbcbc228f	-0.022965698
207	0xbda436ca	-0.08018263
208	0xbcd101a0	-0.02551347
209	0xbafca8d1	-0.0019276385
210	0xbcdc25fe	-0.026873585
211	0xbda631b0	-0.08114946
212	0xbc130b87	-0.008974916
213	0xbdcc4ae0	-0.09975219
214	0xbd3a1359	-0.045428608
215	0x3b854327	0.004066843
216	0xbd99dd36	-0.07512896
217	0xbd834ced	-0.06411157
218	0xbd6f0d07	-0.058362033
219	0x3c29d2b2	0.010365175
220	0xbd773d0e	-0.06036096
221	0xbd477c90	-0.048702776
222	0xbdfecbff	-0.12441253
223	0xbe2c71b7	-0.16840254
224	0xbd3f4bf5	-0.046703298
225	0xbcb45766	-0.022014331
226	0xbdfbe7d0	-0.12300074
227	0xbd267cae	-0.040646248
228	0xbc1998dc	-0.009374823
229	0xbdcdf60d	-0.10056696
230	0xbd9d122e	-0.07669483
231	0xbd94de1e	-0.07268928
232	0xbe26dd6f	-0.16295408
233	0x3b557d86	0.0032576039
234	0xbd0d8af2	-0.034556337
235	0xbc6f9d48	-0.014624901
236	0x3b4994e8	0.003075892
237	0xbe0237a7	-0.12716542
238	0xbcd883ad	-0.026429975
239	0xbdfb860f	-0.12281429
240	0xbda80e47	-0.08205848
241	0xbd0e683c	-0.034767374
242	0xbdf1b5cd	-0.11802254
243	0xbd62a843	-0.055336248
244	0xbdd1825f	-0.102299444
245	0xbdf92815	-0.12165848
246	0xbdc56cf0	-0.09639919
247	0xbe006360	-0.12537909
248	0xbd9e2c89	-0.07723338
249	0xbd9741fd	-0.07385633
250	0xbddeea72	-0.10884561
251	0xbe1f4047	-0.15551864
252	0xbd575701	-0.052573208
253	0xbd87621f	-0.06610512
254	0xbcd701a7	-0.026245905
255	0xbda52b29	-0.08064873

net.3.bias f4 [5]
0	0xbc896761	-0.016772928
1	0x3dd5852c	0.10425791
2	0xbd90d23b	-0.07071348
3	0x3c4df6b5	0.012571027
4	0xbc72f718	-0.01482942
