training/models/emotion_classifier_all-MiniLM-L12-v2.pt (torch, 402943 bytes, 4 tensors)

net.0.weight f4 [256, 384]
0.32554278 0.07236066 -0.02988859 0.4764611 -0.18890496 -0.13252519 0.20260012 -0.012353167
0.35877797 0.044255324 0.35877496 0.114119984 0.23039511 -0.18511409 0.0793829 -0.013403683
-0.42246363 0.14732632 0.026513059 -0.34003723 0.20938341 0.034839872 -0.006206068 0.011756496
0.16700599 -0.46819133 -0.09828767 -0.1217752 0.17359 0.17450842 -0.15126163 0.07769136
-0.08327767 0.20474769 -0.024561524 -0.15466379 0.070852906 0.27792382 0.26688474 0.015894758
0.022800611 0.20495178 -0.25318778 0.37905583 -0.3353569 0.20499231 -0.1361194 -0.16087428
0.26337445 0.23385496 0.21300882 -0.36416224 0.070736885 0.056766238 -0.12410232 -0.11561882
0.16487898 -0.13963656 -0.2913605 0.018104313 -0.08252404 0.0889987 0.325197 -0.22319184
0.24663523 -0.36491516 -0.011433032 -0.30562618 -0.12141103 0.3596746 -0.09733173 -0.2913922
0.014380974 -0.34120858 -0.3227373 -0.13830692 0.32044354 -0.0361542 0.5227743 -0.08979719
-0.045663938 0.16932203 0.021166125 -0.057810154 0.3444495 -0.4979259 -0.08584521 0.45053264
0.198686 0.35072774 0.19201837 -0.043032132 -0.06893248 0.1472111 -0.01384822 0.44732314
-0.060084127 -0.4663092 -0.41909254 0.24495746 -0.29772684 -0.39105824 -0.2639896 -0.104342364
0.6920709 -0.43666524 -0.13814105 -0.3479081 0.1567438 -0.0479389 0.027678771 -0.045058057
-0.16426587 -0.038688764 0.4362754 0.21588494 -0.10564211 0.23332164 0.36223805 -0.00013138604
-0.003953282 0.31198686 0.30459237 0.22822839 0.07597698 -0.09544088 0.33891118 -0.11914102
0.44778728 -0.14585727 0.498853 -0.13882539 -0.016077703 -0.14431804 -0.18622574 -0.1078568
-0.22396597 0.056787614 -0.15905492 -0.2432089 -0.060662843 -0.35788178 0.25328162 -0.013574112
-0.1169877 0.30436766 -0.18192373 0.4773512 -0.12671335 -0.16302532 -0.4485593 0.075405106
0.13388309 -0.00981411 0.26955464 -0.117774844 -0.0347201 -0.13125783 -0.26051763 -0.03136033
-0.11374296 -0.12455956 -0.31452915 0.29824907 0.23346739 -0.17765355 -0.19608046 0.009979677
-0.3811127 -0.2719052 -0.07062127 -0.13376571 0.28849998 -0.117473155 -0.39495373 -0.075137325
-0.29948282 -0.0944843 0.3800781 0.07368916 0.055162795 -0.3979509 -0.24424003 -0.29341233
-0.14502485 0.18454497 0.48508647 -0.4665259 0.40127084 0.08236984 0.3028544 -0.108427726
-0.01952978 0.06807356 0.16452417 -0.25271186 -0.1616378 -0.28399053 0.058323476 -0.553761
-0.15734261 0.22711575 0.06376946 -0.15201204 -0.09801451 -0.28019953 -0.20832646 -0.18435492
-0.03918561 -0.23754631 0.15194453 -0.09839028 0.06812199 0.21694295 0.33938408 -0.13885316
0.25663346 -0.23907398 0.24887833 -0.11346389 -0.09206116 0.006570737 0.23613013 -0.3996955
-0.39378816 -0.2959242 -0.07147951 -0.29030123 -0.07825342 -0.3189128 -0.23437878 -0.048345283
0.5771869 0.11664988 -0.14567924 -0.16484813 -0.39100286 -0.1522541 0.06621396 0.031550813
0.2583119 0.05898218 -0.30761442 0.32868204 -0.71934223 -0.27409092 -0.12683739 -0.21304835
0.43617845 0.38937274 -0.17592193 0.3834786 -0.15734021 -0.3479452 0.02692214 -0.18106839
00000000: 8bad a63e d331 943d ebd8 f4bc b6f2 f33e
00000010: 4d70 41be afb4 07be 6876 4f3e f064 4abc
00000020: bfb1 b73e 1245 353d 5ab1 b73e bdb7 e93d
00000030: b2ec 6b3e 8c8e 3dbe 8093 a23d 1f9b 5bbc
00000040: 274d d8be b6dc 163e ea31 d93c 5c19 aebe
00000050: 9b68 563e 41b4 0e3d 465c cbbb 519e 403c
00000060: 9e03 2b3e c6b6 efbe 0c4b c9bd 4765 f9bd
00000070: 94c1 313e 56b2 323e 54e4 1abe a61c 9f3d
00000080: 7c8d aabd 61a9 513e 4035 c9bc 2f60 1ebe
00000090: 541b 913d 084c 8e3e 1ea5 883e b935 823c
000000a0: 59c8 ba3c e1de 513e d4a1 81be 9b13 c23e
000000b0: e6b3 abbe 81e9 513e e262 0bbe 3abc 24be
000000c0: 04d9 863e ad77 6f3e fc1e 5a3e 7973 babe
000000d0: 80de 903d b783 683d 5b29 febd 8fc9 ecbd
000000e0: 09d6 283e e3fc 0ebe 342d 95be 7f4f 943c
000000f0: 5d02 a9bd f344 b63d 3980 a63e 678c 64be
00000100: f28d 7c3e 29d6 babe 9d51 3bbc 097b 9cbe
00000110: 59a6 f8bd 4527 b83e dc55 c7bd 5c31 95be
00000120: 2d9e 6b3c e4b2 aebe d33d a5be 54a0 0dbe
00000130: 2d11 a43e 6d16 14bd 89d4 053f 97e7 b7bd
00000140: 1c0a 3bbd c162 2d3e 9564 ad3c 57ca 6cbd
00000150: af5b b03e 25f0 febe 9dcf afbd 37ac e63e
00000160: 5874 4b3e 9692 b33e 77a0 443e 7642 30bd
00000170: 792c 8dbd 82be 163e a5e3 62bc 8a07 e53e
00000180: c61a 76bd 14c0 eebe 4c93 d6be 21d6 7a3e
00000190: a76f 98be c938 c8be a529 87be 73b1 d5bd
000001a0: 8f2b 313f 9692 dfbe d974 0dbe 0321 b2be
000001b0: 7281 203e 945b 44bd 97be e23c cc8e 38bd
000001c0: 5035 28be 1c78 1ebd 7d5f df3e f110 5d3e
000001d0: e45a d8bd deeb 6e3e 4477 b93e acc4 09b9
000001e0: 888a 81bb bebc 9f3e 88f3 9b3e b4b4 693e
000001f0: d299 9b3d 8276 c3bd c485 ad3e 3500 f4bd
00000200: 6044 e53e 9c5b 15be a969 ff3e 3e28 0ebe
00000210: 63b5 83bc 1cc8 13be f6b1 3ebe 07e4 dcbd
00000220: 5657 65be 219a 683d 4bdf 22be c10b 79be
00000230: 9a79 78bd 483c b7be 21ae 813e f465 5ebc
00000240: 3f97 efbd 14d6 9b3e 374a 3abe 6067 f43e
00000250: 25c1 01be 1cf0 26be 91a9 e5be fe6d 9a3d
00000260: a618 093e 5ccb 20bc 1103 8a3e f033 f1bd
00000270: aa36 0ebd 7468 06be 9162 85be b073 00bd
00000280: 12f2 e8bd 1519 ffbd f709 a1be 1ab4 983e
00000290: 1312 6f3e d0ea 35be 51c9 48be cd81 233c
000002a0: 3421 c3be 2937 8bbe e2a1 90bd e1f9 08be
000002b0: 45b6 933e c495 f0bd 6037 cabe 99e1 99bd
000002c0: d055 99be fc80 c1bd 9999 c23e 58ea 963d
000002d0: 62f2 613d 38c0 cbbe 0f1a 7abe 243a 96be
000002e0: 6581 14be 5bf9 3c3e 415d f83e 7cdc eebe
000002f0: 5f73 cd3e 85b1 a83d bb0f 9b3e 5b0f debd
00000300: ebfc 9fbc 276a 8b3d 0679 283e 7363 81be
00000310: 6184 25be 3567 91be 99e4 6e3d 48c3 0dbf
00000320: 6c1e 21be 0891 683e 9099 823d 0ba9 1bbe
00000330: d5bb c8bd 5076 8fbe 8853 55be 89c7 3cbe
00000340: 1781 20bd 573f 73be 5997 1b3e d880 c9bd
00000350: 8b83 8b3d 4b26 5e3e c0c3 ad3e 862f 0ebe
00000360: 7665 833e cfcf 74be f6d9 7e3e c25f e8bd
00000370: 908a bcbd 564f d73b 19cc 713e e3a4 ccbe
00000380: 9a9e c9be 6083 97be d963 92bd 5da2 94be
00000390: 5443 a0bd 8a48 a3be fe00 70be b405 46bd
000003a0: 85c2 133f 22e6 ee3d f02c 15be f3cd 28be
000003b0: 8731 c8be 80e8 1bbe 2f9b 873d 6d3b 013d
000003c0: 7541 843e 4c97 713d a37f 9dbe 0349 a83e
000003d0: d026 38bf a555 8cbe a9e1 01be 5929 5abe
000003e0: c852 df3e dd5b c73e e124 34be 4f57 c43e
000003f0: cb1d 21be e025 b2be d28b dc3c fe69 39be

net.0.bias f4 [256]
-4.575201 -4.9980626 -5.165045 -4.868089 -5.288455 -5.4209127 -4.766011 -4.99612
-4.2977943 -4.5022044 -4.800668 -4.7725563 -4.9361324 -4.3451643 -5.2741017 -4.2440996
-5.281501 -4.5779805 -4.767788 -5.0501437 -5.5744295 -4.514779 -4.6088033 -4.3414407
-5.326761 -4.8901243 -5.0557113 -5.0850472 -4.354583 -5.3279247 -4.933166 -4.8131375
-5.6180387 -5.400639 -5.4015946 -5.0292506 -3.3915899 -5.568973 -5.593481 -4.899309
-5.0396237 -5.5865545 -5.3667836 -4.606069 -5.3580637 -5.4009247 -4.6636734 -4.094049
-5.184153 -5.021048 -4.7211614 -5.1983724 -5.0320067 -4.9856234 -4.734902 -5.2681584
-5.124277 -4.743925 -5.717956 -4.4554434 -4.6381264 -6.007854 -4.2839885 -4.317461
-4.2044706 -4.6023817 -4.4714413 -4.7441554 -4.9487147 -4.792646 -5.014005 -5.2257915
-4.6282554 -4.86245 -4.9764977 -4.581398 -4.5092444 -5.455996 -5.4413652 -5.385711
-5.415126 -4.8559365 -4.2171636 -5.6321177 -4.387503 -4.5572853 -5.115851 -5.4599724
-4.796737 -5.1664057 -5.1166625 -4.787432 -4.569469 -4.374363 -5.4174614 -5.20297
-5.0098853 -5.119201 -4.6392255 -5.6116815 -4.1939545 -5.777169 -5.156239 -4.5221133
-4.9878554 -4.5716867 -4.8215027 -4.231253 -4.205656 -4.773205 -4.818229 -4.502083
-5.17037 -5.2315264 -4.845983 -4.919852 -5.0115557 -4.968712 -4.0451574 -5.131327
-5.679657 -4.3427453 -3.3600152 -4.7722116 -4.681626 -4.904325 -4.256876 -4.993763
-5.253623 -4.8264594 -4.941123 -5.146367 -4.6995745 -4.440785 -4.663359 -5.0688043
-5.236361 -3.73318 -4.5364704 -5.0359097 -5.134406 -5.155572 -4.6712327 -5.0332837
-4.7687173 -4.92209 -4.8554254 -4.601226 -3.9737122 -4.8346605 -5.1627073 -4.6923895
-4.8382273 -5.246742 -5.0980997 -5.2037363 -5.2537374 -5.067384 -4.745661 -4.9646626
-5.0205317 -4.95945 -4.9195743 -5.6534667 -4.7657228 -5.0510426 -5.6731853 -4.113256
-5.3268313 -4.74523 -4.640698 -4.8541913 -5.844386 -4.9919524 -5.2207766 -4.5965867
-4.7288465 -5.4689417 -4.902916 -4.4840384 -4.996479 -4.1665635 -5.1340156 -4.623442
-4.968764 -4.503098 -5.7281585 -4.8753386 -4.854378 -4.9276237 -5.2930155 -4.693754
-5.043235 -4.8020077 -4.4294662 -4.4019375 -4.6680284 -4.6103563 -4.1827073 -5.6017284
-4.700275 -4.5202513 -5.032507 -4.9482136 -5.2476115 -4.4683065 -5.7046885 -4.587911
-5.179818 -5.025913 -5.15904 -5.017938 -3.6821444 -4.740289 -4.4076843 -5.2351785
-4.916701 -5.4069624 -5.48187 -5.2505817 -4.3512964 -5.130812 -4.4934125 -4.853331
-5.260797 -4.5033693 -4.878131 -4.420143 -4.7950983 -4.951174 -5.0181713 -5.6966286
-4.2262564 -4.988215 -4.3237677 -4.0988417 -4.9716444 -4.921872 -5.0987964 -4.8422346
-4.645891 -4.3000803 -5.5797377 -4.387299 -4.8906183 -4.770826 -5.148309 -5.2914004
-4.8509192 -4.8233685 -5.157241 -4.8669634 -4.969732 -4.9546766 -4.8617945 -4.8711786
00000000: 0c68 92c0 21f0 9fc0 0c48 a5c0 63c7 9bc0
00000010: 063b a9c0 1e78 adc0 2a83 98c0 37e0 9fc0
00000020: 8887 89c0 0f12 90c0 129f 99c0 c8b8 98c0
00000030: ccf4 9dc0 960b 8bc0 71c5 a8c0 aacf 87c0
00000040: 0e02 a9c0 d17e 92c0 b891 98c0 c79a a1c0
00000050: ba61 b2c0 1279 90c0 517b 93c0 15ed 8ac0
00000060: d374 aac0 e67b 9cc0 63c8 a1c0 b5b8 a2c0
00000070: be58 8bc0 5c7e aac0 7fdc 9dc0 3905 9ac0
00000080: f9c6 b3c0 09d2 acc0 ddd9 acc0 9fef a0c0
00000090: cf0f 59c0 0735 b2c0 ccfd b2c0 24c7 9cc0
000000a0: 9944 a1c0 0ec5 b2c0 b1bc abc0 eb64 93c0
000000b0: 4275 abc0 60d4 acc0 d03c 95c0 7302 83c0
000000c0: 95e4 a5c0 6dac a0c0 c113 97c0 1159 a6c0
000000d0: 3306 a1c0 3a8a 9fc0 5184 97c0 c194 a8c0
000000e0: 14fa a3c0 3cce 97c0 7ff9 b6c0 fe92 8ec0
000000f0: 886b 94c0 5740 c0c0 6f16 89c0 a428 8ac0
00000100: 068b 86c0 b646 93c0 0c16 8fc0 1fd0 97c0
00000110: df5b 9ec0 5b5d 99c0 bb72 a0c0 af39 a7c0
00000120: ab1a 94c0 3199 9bc0 783f 9fc0 d09a 92c0
00000130: bb4b 90c0 8597 aec0 aa1f aec0 bf57 acc0
00000140: b648 adc0 d563 9bc0 01f3 86c0 4f3a b4c0
00000150: 6d66 8cc0 48d5 91c0 0db5 a3c0 18b8 aec0
00000160: df7e 99c0 3253 a5c0 b3bb a3c0 a532 99c0
00000170: 1739 92c0 c8fa 8bc0 d85b adc0 bb7e a6c0
00000180: fb50 a0c0 7fd0 a3c0 8974 94c0 e592 b3c0
00000190: e034 86c0 92de b8c0 e9ff a4c0 27b5 90c0
000001a0: 839c 9fc0 424b 92c0 c049 9ac0 6d66 87c0
000001b0: bc94 86c0 18be 98c0 ef2e 9ac0 1011 90c0
000001c0: ac73 a5c0 aa68 a7c0 4b12 9bc0 6d6f 9dc0
000001d0: aa5e a0c0 b0ff 9ec0 ee71 81c0 d533 a4c0
000001e0: c0bf b5c0 c5f7 8ac0 7d0a 57c0 f5b5 98c0
000001f0: e1cf 95c0 3bf0 9cc0 5438 88c0 e8cc 9fc0
00000200: ae1d a8c0 5b72 9ac0 ae1d 9ec0 0aaf a4c0
00000210: ea62 96c0 e91a 8ec0 3d3a 95c0 a533 a2c0
00000220: 4590 a7c0 6cec 6ec0 c42a 91c0 2c26 a1c0
00000230: 0e4d a4c0 72fa a4c0 bd7a 95c0 a910 a1c0
00000240: 5599 98c0 c381 9dc0 a55f 9bc0 3e3d 93c0
00000250: 4d51 7ec0 8ab5 9ac0 e634 a5c0 0e28 96c0
00000260: c2d2 9ac0 4fe5 a7c0 a223 a3c0 0285 a6c0
00000270: 9e1e a8c0 0228 a2c0 74dc 97c0 84de 9ec0
00000280: 32a8 a0c0 d0b3 9ec0 276d 9dc0 33e9 b4c0
00000290: cd80 98c0 24a2 a1c0 bc8a b5c0 cb9f 83c0
000002a0: 6775 aac0 edd8 97c0 9980 94c0 8955 9bc0
000002b0: 3605 bbc0 13be 9fc0 9a10 a7c0 3d17 93c0
000002c0: b652 97c0 9201 afc0 b0e4 9cc0 3e7d 8fc0
000002d0: 28e3 9fc0 7d54 85c0 db49 a4c0 3df3 93c0
000002e0: 1d00 9fc0 6119 90c0 134d b7c0 c602 9cc0
000002f0: 1157 9bc0 18af 9dc0 6260 a9c0 3c33 96c0
00000300: 2e62 a1c0 0caa 99c0 30be 8dc0 acdc 8cc0
00000310: 7d60 95c0 0a88 93c0 bdd8 85c0 5c41 b3c0
00000320: a768 96c0 e6a5 90c0 4c0a a1c0 c457 9ec0
00000330: 6fec a7c0 5efc 8ec0 cf8c b6c0 2bd0 92c0
00000340: 12c1 a5c0 47d4 a0c0 db16 a5c0 f392 a0c0
00000350: 41a8 6bc0 73b0 97c0 c00b 8dc0 9586 a7c0
00000360: 9d55 9dc0 d605 adc0 7b6b afc0 c404 a8c0
00000370: d23d 8bc0 9d2f a4c0 09ca 8fc0 7d4e 9bc0
00000380: 7358 a8c0 9a1b 90c0 a619 9cc0 d071 8dc0
00000390: 7271 99c0 0470 9ec0 dc94 a0c0 c84a b6c0
000003a0: 7e3d 87c0 759f 9fc0 4e5c 8ac0 b629 83c0
000003b0: b617 9fc0 fa7f 9dc0 5729 a3c0 96f3 9ac0
000003c0: 24ab 94c0 429a 89c0 368d b2c0 c164 8cc0
000003d0: f27f 9cc0 9baa 98c0 f3be a4c0 2753 a9c0
000003e0: bb3a 9bc0 0959 9ac0 1e08 a5c0 2abe 9bc0
000003f0: 0b08 9fc0 b68c 9ec0 d293 9bc0 b2e0 9bc0

net.3.weight f4 [5, 256]
-0.039892703 -0.074519075 -0.009090561 -0.034158707 -0.0005750351 -0.041796923 0.009673798 0.035782874
0.007431607 -0.00813327 -0.00080358103 -0.03555553 -0.093840934 -0.0774403 0.0009748786 0.007384779
-0.025800101 -0.015746616 -0.0007924582 -0.08520225 -0.07419437 -0.042565294 0.008072476 -0.030692525
-0.1106068 -0.00020617031 -0.05801412 -0.036056235 -0.062251065 -0.061135665 -0.00782319 -0.0833205
-0.07983937 -0.07964386 -0.056125253 -0.0392297 -0.0074258936 -0.09640657 0.0084922705 -0.078052126
-0.054667346 -0.061332144 -0.12035402 -0.058275048 -0.1050138 -0.037808254 -0.007820235 -0.020646052
0.00224341 -0.0286794 -0.002736279 -0.10150358 -0.13336067 -0.03589411 -0.057199538 -0.013641487
-0.02925563 0.0018897433 -0.055751063 -0.10020897 0.027160829 -0.03045279 -0.11956425 -0.027556468
-0.093052566 0.035111323 -0.0037231955 -0.00026970822 -0.020051982 -0.07811459 0.0052387016 -0.111587554
-0.040828627 -0.046348322 -0.09177295 -0.049771268 -0.021115866 -0.068520755 -0.05328917 -0.061018735
-0.041756265 -0.024598423 0.010435309 -0.15556966 -0.054510087 0.022949507 -0.05397918 0.0036162185
-0.049475867 -0.10605015 0.00034299586 -0.041983772 -0.010165916 -0.07592409 -0.12691031 -0.030553114
-0.01557674 -0.11586928 0.01191335 -0.0101472 -0.00124766 -0.0533899 -0.013205608 -0.003538525
-0.11002257 -0.06484697 -0.029658489 -0.060463227 -0.08987909 -0.087179765 -0.013273044 -0.08013922
-0.06847597 0.049948033 -0.050928283 -0.041034058 0.010480361 -0.031536683 -0.11921259 -0.061838467
-0.13069732 -0.06740032 0.038631223 -0.026853753 -0.1397691 -0.06007147 0.013190728 -0.081469
-0.0036024433 -0.07373977 -0.08093226 -0.05257515 -0.10487359 -0.029093614 -0.048830558 -0.09863796
-0.014037515 0.023029419 -0.0798998 -0.042951945 -0.02150223 -0.08382378 -0.086900026 -0.045528643
0.003319259 -0.06755884 -0.051673084 0.062200386 -0.085745014 -0.015263639 -0.105293885 -0.09844178
-0.07495354 -0.054191723 -0.048469767 -0.10711627 -0.09792796 -0.14401598 0.0060554096 -0.044514414
0.0021174601 -0.037484057 -0.08988036 -0.045576412 -0.020271016 -0.091574095 -0.11438503 -0.091519214
-0.0075969705 -0.06352228 0.0043768645 -0.06963531 -0.101305105 0.006677133 -0.106886655 -0.03237629
-0.08308642 -0.05759654 0.016738214 -0.020441616 -0.044707824 -0.09623707 0.020296594 0.0005015305
-0.026993038 -0.06877034 -0.11827612 -0.025643036 -0.05502286 -0.093509465 -0.054960165 -0.06323144
0.030837774 -0.01861329 0.024449402 -0.049785107 -0.060558803 -0.0319399 0.0068745324 -0.02938539
-0.10039407 -0.02716957 -0.034857836 -0.031920932 0.019696863 -0.026407314 -0.13895239 -0.036497615
0.0014874708 -0.011170328 -0.0021219554 -0.11252796 -0.03247601 -0.053675953 -0.04622137 0.02194864
-0.06502325 -0.05324853 -0.06461341 -0.07140131 -0.054605335 -0.10665582 -0.022996409 -0.040110383
-0.0725792 0.0038486607 -0.009348236 -0.111546256 -0.08469468 -0.020576341 -0.074534476 -0.0776272
-0.07553884 -0.08349894 -0.012018763 -0.042862367 0.0030752022 -0.11870647 -0.06352025 -0.12308824
-0.05304409 -0.009099794 -0.055179827 -0.08010642 0.0067303427 -0.062474355 -0.042781524 -0.0059957597
-0.10735342 0.0039450773 -0.08167338 0.0058732415 -0.048164766 -0.056269865 -0.028915612 -0.025155501
00000000: 8866 23bd 759d 98bd 94f0 14bc 00ea 0bbd
00000010: f4bd 16ba 4033 2bbd da7e 1e3c 1091 123d
00000020: d784 f33b 6841 05bc 69a7 52ba ada2 11bd
00000030: ad2f c0bd 0599 9ebd ff8e 7f3a 04fc f13b
00000040: bc5a d3bc 0cff 80bc f8bc 4fba 847e aebd
00000050: 38f3 97bd f258 2ebd 6b42 043c e46e fbbc
00000060: d185 e2bd 6c2f 58b9 37a0 6dbd b4af 13bd
00000070: f9fa 7ebd 6469 7abd d62c 00bc f0a3 aabd
00000080: d382 a3bd 521c a3bd 98e3 65bd 52af 20bd
00000090: e954 f3bb cf70 c5bd 2a23 0b3c cbd9 9fbd
000000a0: deea 5fbd 6a37 7bbd 2b7c f6bd d1b1 6ebd
000000b0: 7a11 d7bd d4dc 1abd 7120 00bc e921 a9bc
000000c0: 2d06 133b 10f1 eabc 2553 33bb 1ce1 cfbd
000000d0: b38f 08be b405 13bd 104a 6abd 8b80 5fbc
000000e0: 81a9 efbc 43b1 f73a 3a5b 64bd 5c3a cdbd
000000f0: 6380 de3c 2178 f9bc 1ade f4bd 1abe e1bc
00000100: 5892 bebd e4d0 0f3d db00 74bb a067 8db9
00000110: 0e44 a4bc 8bfa 9fbd 6aa9 ab3b 0488 e4bd
00000120: eb3b 27bd bdd7 3dbd 75f3 bbbd f5dc 4bbd
00000130: 2efb acbc 9c54 8cbd bf45 5abd c8ee 79bd
00000140: 9e08 2bbd a282 c9bc dcf8 2a3c a74d 1fbe
00000150: f845 5fbd 9b00 bc3c 4619 5dbd 14fe 6c3b
00000160: 35a7 4abd d230 d9bd 20d4 b339 2df7 2bbd
00000170: f18e 26bc 177e 9bbd c7f4 01be 864a fabc
00000180: 9535 7fbc e04c edbd 3630 433c 7140 26bc
00000190: 8688 a3ba 5eaf 5abd 565c 58bc 99e6 67bb
000001a0: 8353 e1bd 7dce 84bd 5cf6 f2bc 4aa8 77bd
000001b0: 8712 b8bd 4e8b b2bd 2e77 59bc 0820 a4bd
000001c0: 213d 8cbd 4f96 4c3d 2d9a 50bd 5413 28bd
000001d0: d2b5 2b3c 9c2c 01bd bb25 f4bd 554a 7dbd
000001e0: 85d5 05be 2e09 8abd c63b 1e3d 67fc dbbc
000001f0: a21f 0fbe 800d 76bd ec1d 583c 38d9 a6bd
00000200: f816 6cbb e004 97bd d0bf a5bd 0a59 57bd
00000210: f7c7 d6bd bb55 eebc 8d02 48bd b302 cabd
00000220: 9bfd 65bc 31a8 bc3c 82a2 a3bd 61ee 2fbd
00000230: 7225 b0bc cdab abbd a4f8 b1bd 3e7c 3abd
00000240: ed87 593b 4a5c 8abd 28a7 53bd d5c5 7e3d
00000250: 159b afbd 5814 7abc 52a4 d7bd d89b c9bd
00000260: 3e81 99bd 24f8 5dbd 3c88 46bd c65f dbbd
00000270: 748e c8bd ed78 13be 756c c63b bf54 36bd
00000280: 16c5 0a3b e288 19bd 3213 b8bd 55ae 3abd
00000290: 670f a6bc 338b bbbd b342 eabd 6d6e bbbd
000002a0: 02f0 f8bb f817 82bd cd6b 8f3b f59c 8ebd
000002b0: 0d79 cfbd dacb da3b 64e7 dabd 009d 04bd
000002c0: 3729 aabd 59ea 6bbd 941e 893c 2d75 a7bc
000002d0: 8d1f 37bd f117 c5bd 0b45 a63c 2479 033a
000002e0: 8120 ddbc 77d7 8cbd c03a f2bd 5811 d2bc
000002f0: a75f 61bd e481 bfbd e91d 61bd 7c7f 81bd
00000300: 809f fc3c e67a 98bc 1d4a c83c 78eb 4bbd
00000310: 820c 78bd 6ad3 02bd c243 e13b a1b9 f0bc
00000320: 689b cdbd b892 debc 17c7 0ebd 86bf 02bd
00000330: 515b a13c 2754 d8bc 8949 0ebe 867e 15bd
00000340: 3df7 c23a c003 37bc 8110 0bbb 0f75 e6bd
00000350: 9105 05bd 51db 5bbd 9f52 3dbd a2cd b33c
00000360: e92a 85bd 211b 5abd 0954 84bd da3a 92bd
00000370: d8a9 5fbd 5e6e dabd f762 bcbc c94a 24bd
00000380: 67a4 94bd d039 7c3b 5829 19bc 5d72 e4bd
00000390: 6874 adbd b78f a8bc 88a5 98bd 02fb 9ebd
000003a0: 1bb4 9abd 7e01 abbd 59ea 44bc 7390 2fbd
000003b0: 5589 493b 611c f3bd e816 82bd b015 fcbd
000003c0: c244 59bd 4d17 15bc 3e04 62bd d60e a4bd
000003d0: 358a dc3b 1ce5 7fbd ae3b 2fbd 1478 c4bb
000003e0: 1cdc dbbd b545 813b 6044 a7bd 5274 c03b
000003f0: 6b48 45bd 3b7b 66bd 6fe0 ecbc e912 cebc

net.3.bias f4 [5]
0.20440595 -0.09610631 -0.05161057 -0.1736065 0.103026494
00000000: cb4f 513e 63d3 c4bd 9b65 53bd e7c5 31be
00000010: 8eff d23d
