training/models/emotion_classifier_all-MiniLM-L6-v2.pt (torch, 402729 bytes, 4 tensors)

net.0.weight f4 [256, 384]
00000000: 45f4 113d 0d02 0fbe 28c1 8f3c 2231 683c
00000010: 649e 133c f37b 2cbe 00a4 1d3e 57cc a2be
00000020: 99b8 923d 232b bdbd 716e 613d a96f af3d
00000030: b6aa 04bd 4598 3d3e 5fa5 3bbe 8b95 13be
00000040: 54b3 67be 2509 b9bd 61cd a33e 2cc2 a8be
00000050: 2379 77bd e8d9 1b3e 8f40 293e 0920 333b
00000060: c57e d0be 7619 82be 8c1c 36be 0461 bbbd
00000070: bf55 4e3d bab8 213e dd51 393e 39c7 4b3e
00000080: 5d7f 883d 81cf 08bf 7fd7 eabc 589a ee3c
00000090: 341d 5dbe cd7c 383d f85b 8bbe 172e fabc
000000a0: 7ca3 d03e d373 863e 1c90 6bbc 8ea1 613d
000000b0: ce1c 2d3f b36b a93e ec7a e3bd 1734 a7bd
000000c0: 726d 803d 7cb9 38be 4d5d 11bf 81c5 0abd
000000d0: ae85 3ebe ebdb 43bd dddd 66be adca d63d
000000e0: b9ae 113d 741a 943e 09a5 123f b3ea 193c
000000f0: 0337 12bd e42b 953a 5466 b4bd 5e8a eebd
00000100: b7ae 5c3e 8b20 56bd 8b19 ee3e a27a 2c3d
00000110: 2ff5 c43e f49b 723d c288 f93e 3e0f 32be
00000120: 6501 c33e 3796 543e 2104 663e ed0c b23d
00000130: a079 40be d494 fe3d 36d2 d6bc c358 59bd
00000140: 7082 35be f031 a13d 7c67 7f3e bfe8 1a3e
00000150: 3360 883e eca6 06be c4eb 3dbe 8bcf 983d
00000160: a404 583e 8034 fcbd 0eab 4d3e 033f 84be
00000170: d7e6 11bd 45eb 1cbe 2403 e93e 356f c93d
00000180: b4ab 58bd 9bbd a7bd 95c9 b5bd 8b1b 043e
00000190: 5ffb 443d b735 16be 9ead 3cbe 2fcb 723d
000001a0: 4279 a53b d7f8 4f3b d84b 5bbe 3b41 3dbe
000001b0: 981b a23c f7ee 133e e037 963e ac1a 74bc
000001c0: 4691 1f3e 8cdb 8cbe d7a1 da3d cfaa 1a3d
000001d0: 11f4 d73d 6040 ec3c c32d a93e 78cf 4dbe
000001e0: 1a7f bc3e 308a ea3d f1a0 083d 5e7e ecbd
000001f0: 3aab c53e 4724 1cbe 0797 13bd be73 bebd
00000200: 54cc 573a d5ef 2fbd 3ed6 383e c2b2 3b3e
00000210: 707b bdbe c379 1c3d c958 ba3e 51eb e33d
00000220: e04a 62be 3c5e 8abd ab90 92be dd02 cb3d
00000230: 869f a13e 4441 7e3e e70a 103e 9571 b73e
00000240: efe0 ebbd e3d1 a6be 404f 48be 049a e83d
00000250: f200 f9be fef4 08be a2f1 f8bd 075c e3be
00000260: 91bb 90bb 641c 493d a513 95be 7c59 b8be
00000270: 841b 413e c676 efbd 559e 373e c1fb 9bbd
00000280: a2bc 163d 8ffb 6c3e 761e 273e 7356 173e
00000290: 11bf c8bc 01d5 fc3d c50e 12be 99a2 4abd
000002a0: fd29 3a3e 2cff 233e 7934 993d f86d 803d
000002b0: 7e27 2fbd d3f8 583d e3cd d93d 3c39 b63e
000002c0: eaf1 353e 4df8 de3e 1c3f c23e e988 783e
000002d0: a91b 423e c3c4 1dbe b2ed 2bbe 58d0 1dbe
000002e0: 7d6c 08bd b332 853c dd04 0fbe 76a0 ad3b
000002f0: 689d 8b3d 3105 39bd 5db5 d23e 89ee 993b
00000300: 24e7 323d 39d1 7bbd 7842 9f3c 31e2 23be
00000310: 067b 90be adb0 0bbe 3938 9bbe abfe 663e
00000320: 8f02 43bd 1fac b3be 5d81 8bbd 9975 78bd
00000330: 2535 adbe 8a07 cbbd 0d24 26bc ac14 88be
00000340: 7791 fe3d 83d0 cabe 2a0b 8dbe a28f db3e
00000350: 513b 2a3e 00a4 00bf 27e8 d93b 7cd3 12be
00000360: 59c9 debd 86c4 bcbd e560 5bbe 2369 843e
00000370: f702 ae3c fdc9 68bd 63c7 8c3d 4044 00be
00000380: 4f28 b83d 0d62 1b3e c949 9e3d 3f5a f73d
00000390: 74df 923e e140 4ebe 4943 b7bd 9f10 f03d
000003a0: ca23 943e a063 f43d ff32 ecbe 2ab8 9ebe
000003b0: 9f67 cebe 1eb2 283e dc78 043e c142 95be
000003c0: c156 843d cdc4 a5be 0ab3 af3e a0c6 0dbd
000003d0: 0c63 c9be e215 fe3c e95b c33b 71c1 a83d
000003e0: 2db4 2bbe 101e ee3e cc05 59be 863b 9d3e
000003f0: 196b 2cbd f08b 6fbe a89b a8bc 47e5 25bd
0.035633344 -0.13965626 0.017548159 0.01417187 0.009009931 -0.16844158 0.15394592 -0.31796524
0.071641155 -0.09236743 0.055036966 0.08566219 -0.032389365 0.18515117 -0.18324803 -0.14412515
-0.22627002 -0.09034947 0.3199263 -0.3296064 -0.06041826 0.15219843 0.16528533 0.0027332327
-0.40721717 -0.2541005 -0.17784327 -0.09149364 0.050374743 0.15793124 0.18097635 0.19900216
0.066649176 -0.53441626 -0.02866721 0.029126331 -0.21593171 0.045040894 -0.27218604 -0.030539555
0.4074973 0.26260242 -0.01437762 0.05508571 0.6762208 0.3308998 -0.1110743 -0.08164232
0.06270875 -0.18039507 -0.5678299 -0.03387976 -0.18605682 -0.047817152 -0.22545572 0.10487876
0.03556702 0.28926432 0.57283074 0.009394336 -0.035696995 0.0011380878 -0.0880858 -0.11647485
0.21551023 -0.05227713 0.46503863 0.04210914 0.3846831 0.05923076 0.4873715 -0.17388627
0.38087 0.20760427 0.22462513 0.08693872 -0.18796396 0.124307305 -0.026223283 -0.053063165
-0.17725539 0.07870853 0.2494182 0.15127848 0.26635894 -0.13149613 -0.18546969 0.07461461
0.2109552 -0.12314701 0.20084783 -0.25829324 -0.035620537 -0.15324123 0.4551021 0.09835664
-0.052898124 -0.08190461 -0.08876339 0.12901132 0.04809129 -0.14668928 -0.18425605 0.059275802
0.0050498554 0.0031734013 -0.21415651 -0.18481915 0.019788548 0.14446627 0.29339504 -0.014898937
0.15582761 -0.2751125 0.106754 0.037760552 0.10544599 0.02883929 0.33042726 -0.20098674
0.3681572 0.114521384 0.03335661 -0.1154754 0.38607198 -0.15248214 -0.036032703 -0.0929942
0.00082320464 -0.04295333 0.18050477 0.1832991 -0.37008238 0.03820206 0.36395863 0.111288674
-0.22098875 -0.06756255 -0.28625998 0.099126555 0.3156702 0.24829584 0.14066659 0.35828844
-0.11517512 -0.32582006 -0.19561481 0.11357501 -0.48633534 -0.13374707 -0.12155463 -0.4440615
-0.004416891 0.04909934 -0.2911655 -0.3600577 0.18858153 -0.11692576 0.17931493 -0.076163776
0.036800988 0.23142837 0.16320214 0.14779072 -0.02450517 0.12345315 -0.14263447 -0.04947147
0.1818008 0.16015309 0.074807115 0.06270975 -0.042762272 0.052971672 0.10634973 0.3559054
0.17768064 0.43548813 0.37938774 0.24270977 0.18955864 -0.1540709 -0.16789892 -0.15411508
-0.033306587 0.016259527 -0.13966699 0.0052986694 0.06817132 -0.045170967 0.41153994 0.004697625
0.043677464 -0.061478827 0.019440874 -0.16004254 -0.2821886 -0.13641615 -0.30316332 0.22558086
-0.047609862 -0.35092255 -0.068117835 -0.060659025 -0.3382961 -0.09913547 -0.010140431 -0.2657827
0.12430089 -0.39612207 -0.2754758 0.4288302 0.1662419 -0.50250244 0.006649989 -0.14338487
-0.10878248 -0.09217171 -0.21423681 0.25861463 0.021241648 -0.056833256 0.068739675 -0.12526035
0.08992063 0.15174122 0.07728917 0.1207776 0.28686106 -0.20141937 -0.089483805 0.1172192
0.28933555 0.119330645 -0.46132657 -0.3099988 -0.40313432 0.16474196 0.12936729 -0.29152492
0.064618595 -0.3237671 0.34316283 -0.03461325 -0.3933338 0.031016294 0.0059618843 0.08240021
-0.1676795 0.4650731 -0.21193618 0.30709475 -0.042094324 -0.23393226 -0.020582035 -0.04050186

net.0.bias f4 [256]
00000000: d3eb 9dc0 4689 acc0 76cf aac0 7f07 a5c0
00000010: e1bd 84c0 c60f b6c0 be0e aec0 4b56 a5c0
00000020: 033f a8c0 4fb2 a3c0 aed8 99c0 3949 b0c0
00000030: 96da 9ec0 5085 92c0 c3a8 94c0 3301 9fc0
00000040: a8ef 81c0 bf0e 8fc0 7a32 9cc0 e75f a1c0
00000050: 401e 68c0 9057 92c0 dcd9 6dc0 97ae aec0
00000060: 4049 95c0 66d2 a6c0 54d9 90c0 8af7 a2c0
00000070: 696b 9cc0 0cd1 a1c0 7a44 96c0 f7c7 a4c0
00000080: 4373 a2c0 485b 94c0 2e56 8ec0 63f3 89c0
00000090: f223 95c0 c11c 96c0 657e a6c0 fe63 93c0
000000a0: 5f65 a5c0 18fb c0c0 8d93 b7c0 fa75 a6c0
000000b0: 0543 8bc0 ed8c b7c0 1f52 9ec0 ee10 9bc0
000000c0: 425a 9cc0 7501 96c0 f972 83c0 06cb 83c0
000000d0: 8056 79c0 4799 b2c0 2352 8fc0 f8e7 81c0
000000e0: db5e 9bc0 8ab9 8fc0 3c9b 89c0 3e4e b4c0
000000f0: 17c8 9cc0 ca58 a9c0 0967 8bc0 83b7 84c0
00000100: 72ad a2c0 a6c2 a7c0 52c3 a3c0 7d84 84c0
00000110: f422 8ec0 a0d3 9dc0 d98c 9ac0 34b0 a1c0
00000120: d587 b3c0 a2ec 9ac0 bcc7 aac0 0705 8bc0
00000130: 636a bbc0 4c75 9dc0 e84a b5c0 8650 8ec0
00000140: 42ae a3c0 144c 9ac0 ca09 96c0 a7ca 7cc0
00000150: 38aa a9c0 422b 9ac0 fd67 63c0 e6c2 a3c0
00000160: d0df b1c0 a587 83c0 fabb a1c0 6bf3 89c0
00000170: 8a61 7bc0 221d a3c0 c8f2 85c0 9790 b2c0
00000180: e695 9cc0 2ee9 62c0 3cd1 88c0 cea5 a8c0
00000190: 2921 a3c0 b489 9cc0 f7ec 86c0 6017 9fc0
000001a0: 8a63 9cc0 346a a4c0 d6b0 98c0 4d86 80c0
000001b0: a1b4 a7c0 89d8 94c0 a858 9dc0 d8d9 8ec0
000001c0: 692b 69c0 f1d2 7cc0 5abb 90c0 6d78 9ec0
000001d0: 8ea9 96c0 d999 8dc0 d9a5 6dc0 94b0 a2c0
000001e0: 6eb6 a3c0 c308 99c0 3fec 4cc0 660e 8fc0
000001f0: 289f aac0 4f2e aec0 c355 90c0 0950 9cc0
00000200: 2e01 a1c0 14a6 9ec0 7699 7fc0 8756 98c0
00000210: 8ef6 9dc0 f0c0 8cc0 53ef 9ac0 27e0 9cc0
00000220: 753e 9ec0 4d63 8dc0 a722 9dc0 8b51 80c0
00000230: 48b7 a9c0 2ee9 90c0 7c5d 9ac0 3754 98c0
00000240: 5b1d 86c0 8f6c 9fc0 91bb 8ec0 8a1e 94c0
00000250: 5eee 97c0 afab a4c0 78a1 9fc0 c0b7 87c0
00000260: f253 63c0 f3cb 99c0 661b 72c0 22b9 a1c0
00000270: 498a 95c0 50ba 8fc0 43ef aec0 0eeb c2c0
00000280: 26be adc0 3027 9fc0 2cdb b7c0 8e90 8bc0
00000290: 4aab 90c0 4d82 66c0 740e 9cc0 e7a6 a2c0
000002a0: b24e 99c0 6c2b 9dc0 0dd1 abc0 8b66 87c0
000002b0: 55c5 a0c0 a005 9cc0 ae2f 95c0 64ba 66c0
000002c0: a4d8 a8c0 3fe7 9ec0 4e2b a8c0 f607 93c0
000002d0: 2665 afc0 586f 82c0 2914 97c0 f748 9ac0
000002e0: 8d2b 9ec0 64f6 8bc0 9de4 9ec0 4fe6 95c0
000002f0: 00b8 92c0 386b 94c0 2cb5 a1c0 c912 a2c0
00000300: 8495 81c0 ca95 9dc0 acdb 9bc0 01b4 a0c0
00000310: aa93 abc0 b7dc 9cc0 e169 a7c0 f904 96c0
00000320: 76c8 a6c0 2255 b4c0 1852 9dc0 605b 90c0
00000330: a6c3 a1c0 3764 8fc0 4ec7 99c0 89d7 9fc0
00000340: 33d1 97c0 59d1 98c0 717f 83c0 0dc0 a0c0
00000350: 43dc 9ac0 5106 acc0 7dd4 a2c0 4c9f 93c0
00000360: bf85 96c0 4fc1 90c0 b96a 9cc0 ef24 a2c0
00000370: 2c17 93c0 34e6 a0c0 f5c1 93c0 0eb8 9dc0
00000380: 00e7 93c0 6fe9 a7c0 650c 93c0 0d6c 86c0
00000390: 5186 a9c0 b5a8 a6c0 a0f1 a3c0 b0fe 8ec0
000003a0: b802 84c0 591e 87c0 7ca4 6bc0 5072 8ac0
000003b0: fd10 7cc0 754d 5ec0 ee09 98c0 2c77 a4c0
000003c0: eec7 8cc0 eb67 5ac0 58ee 99c0 d864 8dc0
000003d0: 7ed8 b6c0 9d26 94c0 9869 96c0 09d6 b1c0
000003e0: 7638 59c0 471d 9dc0 2d42 97c0 48ed b7c0
000003f0: 4eb6 a2c0 1798 a5c0 8fa2 99c0 e2c3 91c0
-4.935037 -5.391757 -5.337825 -5.157165 -4.1481786 -5.6894255 -5.4392996 -5.166784
-5.257692 -5.115516 -4.8077 -5.5089383 -4.964183 -4.5787735 -4.645601 -4.9688964
-4.060505 -4.47055 -4.8811617 -5.042957 -3.6268463 -4.573189 -3.716422 -5.458812
-4.6651917 -5.2131834 -4.5265293 -5.092717 -4.8881116 -5.0567684 -4.695859 -5.14941
-5.07657 -4.6361427 -4.44802 -4.3109603 -4.660638 -4.69101 -5.202929 -4.605956
-5.1686244 -6.030651 -5.7367616 -5.2019014 -4.351931 -5.735953 -4.9475245 -4.8458166
-4.886018 -4.687678 -4.1077847 -4.118533 -3.8959045 -5.5812106 -4.4787765 -4.0595665
-4.855329 -4.491399 -4.3001995 -5.634551 -4.899425 -5.2920885 -4.3563275 -4.1474013
-5.0836725 -5.242511 -5.117593 -4.141173 -4.4417667 -4.932083 -4.8296933 -5.052759
-5.610331 -4.841386 -5.3368816 -4.3443637 -5.8567367 -4.9205685 -5.665394 -4.4473295
-5.1150217 -4.821787 -4.688695 -3.949869 -5.3020287 -4.8177805 -3.553222 -5.1175413
-5.558571 -4.110308 -5.0541964 -4.310964 -3.9278283 -5.0973063 -4.1858864 -5.58015
-4.893298 -3.5454822 -4.2755413 -5.27024 -5.097798 -4.8918095 -4.2164264 -4.9716034
-4.887151 -5.1379642 -4.7715864 -4.016394 -5.2407994 -4.6514325 -4.9170723 -4.4640923
-3.6432745 -3.9503748 -4.52287 -4.9522004 -4.7081976 -4.42503 -3.7132475 -5.084055
-5.1160192 -4.7823195 -3.2019193 -4.4705076 -5.3319283 -5.443153 -4.510469 -4.88477
-5.031394 -4.957773 -3.9937415 -4.7605624 -4.936347 -4.398552 -4.8417144 -4.9023623
-4.945124 -4.4183717 -4.91048 -4.009954 -5.303623 -4.5284643 -4.8239117 -4.76028
-4.1910834 -4.982002 -4.4603963 -4.628728 -4.7478476 -5.1459575 -4.9884605 -4.2411804
-3.5519986 -4.806146 -3.7829223 -5.053849 -4.6731305 -4.491493 -5.4667068 -6.091193
-5.4294615 -4.9735336 -5.7455044 -4.361396 -4.5209093 -3.601703 -4.8767643 -5.082874
-4.7908564 -4.9115505 -5.369269 -4.2312675 -5.0240884 -4.8756866 -4.6620703 -3.6051264
-5.2764454 -4.9657283 -5.255286 -4.594722 -5.481097 -4.076092 -4.721211 -4.821407
-4.9428163 -4.373827 -4.965407 -4.684364 -4.584961 -4.638088 -5.0533657 -5.064793
-4.0495014 -4.924535 -4.8705654 -5.021973 -5.3617754 -4.9019427 -5.2316747 -4.688107
-5.2119703 -5.635392 -4.916271 -4.511154 -5.055133 -4.4809833 -4.805579 -4.9950604
-4.744287 -4.775555 -4.109307 -5.0234437 -4.8393874 -5.375771 -5.0884385 -4.6131954
-4.7038264 -4.5235972 -4.8880277 -5.0670085 -4.5965786 -5.028101 -4.6174264 -4.9287176
-4.6219482 -5.2472453 -4.595263 -4.20069 -5.297646 -5.208094 -5.1232452 -4.46859
-4.125332 -4.2224545 -3.6819143 -4.326454 -3.938537 -3.4734776 -4.751212 -5.1395473
-4.3994055 -3.4125926 -4.8103447 -4.41856 -5.7139273 -4.6297135 -4.70039 -5.5573773
-3.394071 -4.909824 -4.726828 -5.747715 -5.084754 -5.1748157 -4.8010936 -4.5551615

net.3.weight f4 [5, 256]
00000000: 8285 9bbc b9ae 07bd cbcd 71bd 94ba 93bd
00000010: 9adc b7bb 14a7 c4bd 64f4 9dbc d381 16bd
00000020: 1040 4dbd f69d d8bd 6127 e3bd dc34 96bd
00000030: 6298 73bd 1c87 02bd fffb c0bc 9939 62bd
00000040: f22e 36bd b1ab eabc d771 1cbd b76a b1bd
00000050: 6dff 613b c77a 6b3c 29a0 ac3c f6dc a8bd
00000060: 2b39 a8bb 2890 37bd c08f c93c 48fd 2fbc
00000070: eb3d 71bd a736 f0bd b079 0bbd c0fe 0abe
00000080: a505 bebd ef47 eebd 6bb8 31bb eb9e 5abd
00000090: 5d70 e4bc 9338 f43c b2fe b7bd 169d 003c
000000a0: 27cd f2bc b911 8ebd 8ef7 5cbd 7467 2dbd
000000b0: 6900 93ba 12c1 42bd a525 5ebd 3f97 7bbd
000000c0: 335c b63c 0760 02bd 2ee8 adbd b9f6 b7bb
000000d0: 1327 19bd cf3d babd 85c4 74bd ed4f 8cbd
000000e0: a2fa e7bc aa53 3abd 075b c4bd 3986 0cbd
000000f0: d49f cc3b a0f2 2ebd e225 6dbd 378b 7fbd
00000100: 1836 fcbc f729 68bc c218 fdbd 615c adbc
00000110: 38d1 e9bc 3a1c 38bd c17c dfbc 0c16 a8bd
00000120: 503b c3bc 2f0d 9dbd 190c cabd a30d 0dbd
00000130: e6f4 fabd 3820 a0bd 031a 1abd f52f 9f3a
00000140: a0ee 85bd 312f 933b ec4e 68bd e563 643a
00000150: 221e 99bd 7d80 fb3a 5249 76bb aee0 9abd
00000160: 8ff3 04be c7a9 b0bd 1042 7cbd 725c 193d
00000170: bdfe d8bc 0a08 11bd 96d7 d6bd 6aa2 b6bd
00000180: 4341 953c e363 1abd c4c3 be3c 3ea9 80bd
00000190: 65cd 49bc bebc 7c3c 8a0d d0bc 015a e3bd
000001a0: ffdb 3b3c 5ddb 83bc 2858 e5ba 26d0 a6bc
000001b0: 6cfd c3bd c6c9 0abe 17b7 0fbe db94 3cbc
000001c0: fd5c 223d 647f ca3b def0 30bd 8018 37bd
000001d0: 2a2a 4f3c f288 04bd 4264 37bc f6f8 c6bd
000001e0: 5e2a 39bd 8f4a 77bd 42ff 033d 54e3 8d3c
000001f0: 6f9b e0bd 1228 82bd 294b 55bc d1e2 11bd
00000200: eb7b 7cbd b854 6fbd 37d7 2a3c 3da6 62bd
00000210: 41e7 49bd 65c1 bc3b d339 fb3c fd78 68bd
00000220: b3f0 c0bd 81ec e73c 95bd 8abd 45b5 1cbd
00000230: 280b 07bd e5c8 6dbd 77cf 5cbd e7c1 80bc
00000240: c94e 3cbd ca44 09bd e9da f1bc 8f67 4abd
00000250: ebe3 e5bd b1cc 34bb a6d4 d9bd f806 a1bb
00000260: 12d9 863a 61a9 5dbd 22bd a3bd c915 6dbd
00000270: 7a4b 42bd fbba febc 0270 99bd 2570 95bd
00000280: 449b 6abd 1763 593c 19f8 3ebc 9d2d 9bbd
00000290: b9cf 813c 40a7 28bd ef04 66bd 54a9 75bc
000002a0: b329 9abd 1e58 08bd 9811 d7bd d840 0abd
000002b0: 914e e6bc d6f3 79bd a2bc 80bd 365b 87bd
000002c0: 0c25 673c 0b97 8abc db56 75bd 792e 273c
000002d0: 231a 59bd d091 68bd d55c 93bd 9f76 73bd
000002e0: 0d29 c23c e6e8 6ebd d133 dcbd 5d2a 89bc
000002f0: 0262 133b 13f1 50bd 0245 d7bc 8143 85bd
00000300: 5827 69bd 3baf 85bc 18bb a63b f3dd 0bbe
00000310: 3f3b 7fbd a82f 99bc 5e5b 4d3b 71c3 30bd
00000320: c992 5dbd b3ad d3bd d491 aabc eeaf 9c3c
00000330: ed2e 433c b5c0 8cbd 526d 0abe caac e1bd
00000340: 8dc2 b8bc ea3f 173d 605e 55bd e680 bebd
00000350: 3e4b 64bd 45a2 6fbb 6cf6 01bd 7626 2cbc
00000360: ff15 553c 6576 43bd 268b b2bd 4796 28bc
00000370: 2322 00bd ccb3 3fbd a975 c5bd dab2 77bd
00000380: 5dd4 7bbd 44ae b6bd 4f09 a9bd f180 ba3b
00000390: 1016 53bd 0ef0 6cbd c987 dcbc 6de6 6fbc
000003a0: 6c00 683d 816e 783c 2689 71bd c8fd ee3c
000003b0: 1af2 8fbd f857 163d d908 febc e63c 01bd
000003c0: 0469 a4bd 30f6 16bd 6987 5dbb 7c95 873c
000003d0: 5a8b adbd cda8 8cbd c68a 39bd 6a97 8abd
000003e0: b5a0 2bbd e59d 3cbc 2c85 6dbc 4518 aabd
000003f0: 5e0d 883b 47ea e4bc b6e2 ffbc 767f 343d
-0.01898456 -0.033125613 -0.05903415 -0.07213321 -0.0056110146 -0.0960218 -0.019281574 -0.036744904
-0.050109923 -0.10577004 -0.11091495 -0.07334301 -0.059471495 -0.03186713 -0.023557661 -0.05523071
-0.044478364 -0.028646322 -0.038194504 -0.08662932 0.003448452 0.014372534 0.021072464 -0.0824527
-0.005133768 -0.044815212 0.024604678 -0.010741539 -0.05889694 -0.11729174 -0.034051597 -0.13573742
-0.0927842 -0.11634814 -0.0027117978 -0.053374212 -0.02788561 0.029812133 -0.08984126 0.007849952
-0.02963884 -0.06936974 -0.053947024 -0.04233499 -0.0011215332 -0.047547407 -0.05423512 -0.061423536
0.02226076 -0.03182986 -0.084915504 -0.0056141284 -0.03739078 -0.0909382 -0.059757728 -0.06851182
-0.028317753 -0.045489945 -0.095876746 -0.034307692 0.006244639 -0.042711854 -0.057897456 -0.062388625
-0.030787513 -0.014170161 -0.12358238 -0.021162214 -0.028542146 -0.044948794 -0.027281167 -0.0820733
-0.023831993 -0.0766853 -0.09865589 -0.034436833 -0.12253742 -0.07818645 -0.037622463 0.001214503
-0.06539655 0.0044917096 -0.05671589 0.0008712395 -0.074764505 0.0019188073 -0.0037580323 -0.075623855
-0.12983535 -0.086261325 -0.06158644 0.03744168 -0.026488656 -0.035408057 -0.104903385 -0.08917697
0.018219596 -0.037692916 0.023286708 -0.062822804 -0.012317036 0.015425859 -0.02539708 -0.11101151
0.011466025 -0.016095812 -0.0017497586 -0.020362925 -0.09569821 -0.13553533 -0.14034687 -0.011510099
0.03963946 0.006179737 -0.04319846 -0.0447011 0.01264433 -0.032357164 -0.011193337 -0.09715454
-0.04520642 -0.06037384 0.032225855 0.017320313 -0.109671466 -0.06355299 -0.013018408 -0.0356167
-0.061641615 -0.058430403 0.010427288 -0.05533432 -0.049292807 0.005760359 0.030667221 -0.05675601
-0.0942091 0.028311016 -0.06774441 -0.03825881 -0.032969624 -0.058052916 -0.05390879 -0.01571746
-0.045973573 -0.033512868 -0.02952333 -0.049415167 -0.112251125 -0.0027587826 -0.106362626 -0.004914161
0.0010288081 -0.05411661 -0.079950586 -0.057882104 -0.04743526 -0.031095019 -0.07492067 -0.072967805
-0.05727698 0.013268254 -0.011655831 -0.075770594 0.01584612 -0.041175127 -0.05615705 -0.014993984
-0.07527485 -0.03328716 -0.105014026 -0.033753246 -0.028113635 -0.061023556 -0.06285979 -0.06609194
0.014107954 -0.016917726 -0.059897285 0.010203951 -0.05300344 -0.056779683 -0.07195441 -0.059439298
0.023701215 -0.058327578 -0.10752071 -0.016743833 0.0022488837 -0.051011156 -0.026278023 -0.06507016
-0.056922287 -0.016318908 0.0050882213 -0.13658886 -0.06231236 -0.018699482 0.0031334977 -0.043155137
-0.054095063 -0.10335865 -0.02082149 0.019126859 0.011913043 -0.068726934 -0.13518265 -0.11019285
-0.022553707 0.036926188 -0.052091956 -0.09301929 -0.05573582 -0.0036565226 -0.031729147 -0.010507217
0.013005733 -0.04772033 -0.08717947 -0.010289735 -0.031282555 -0.046802327 -0.096415825 -0.0604733
-0.061481822 -0.08919957 -0.082537286 0.0056916405 -0.051534712 -0.05784612 -0.026920216 -0.01464234
0.056641027 0.015163065 -0.058968686 0.029173747 -0.07028599 0.036704987 -0.031010078 -0.031552218
-0.08027843 -0.036855876 -0.0033802635 0.016550772 -0.08473845 -0.06868134 -0.04529836 -0.06767161
-0.04190131 -0.011512254 -0.014497083 -0.0830541 0.004151984 -0.027943743 -0.031236034 0.04406687

net.3.bias f4 [5]
00000000: 2598 ab3d 3d6a e73c 641f b7bd 8600 23be
00000010: 1e46 a33d
0.08378629 0.0282489 -0.08941534 -0.15918168 0.07972358
