training/models/emotion_classifier_all-distilroberta-v1.pt (torch, 796189 bytes, 4 tensors)

net.0.weight f4 [256, 768]
00000000: d66c ebbd 598f 183f 74ae 9fbe 71a2 8cbe
00000010: 2190 ac3d da23 9d3d 5311 ba3d 3629 19be
00000020: 47b2 a8be f059 273e 44e7 d4bc f57a cf3e
00000030: 7d0d 67be 3e12 323d 8bda 193e 08d7 6b3d
00000040: b415 d73e 0435 593e d8d4 203f e62d e7bd
00000050: 2ee1 933e 40a3 64be 0b14 b0be ba4b 43be
00000060: 8533 0a3d d9ec 05bf dec0 133d 9971 a63d
00000070: fb67 9b3d ec17 83be f265 34be e299 b8bd
00000080: 79bb 8cbe f63f a3be 0d93 843d 1cba f7bd
00000090: 23a8 663d fa97 ba3e bfa0 4a3e f41a 41be
000000a0: f6f2 05bf f6e8 32be 177e 873d 9ee5 afbd
000000b0: 37da afbd 1cbc b4bd f756 b6be 7b75 853e
000000c0: d88e 883e fe2b 3fbe 9ed4 493e e281 303e
000000d0: e984 89be 6331 d0bc 3993 7fbd 3fbe 6d3e
000000e0: d495 253e e625 c6bd 1489 343d 8e2c 893b
000000f0: ed4b 76bd 0df1 6f3e 17ed 893e bfd6 643e
00000100: 926c 823d 5e05 e43c cdea debd d55a a3be
00000110: db9b 263e a439 a7be 7171 3cbe 7ec3 a0be
00000120: e7bd 0b3e 9e1e 033e e756 26be 5161 84bd
00000130: 858c aa3d 27c1 6abe 9f09 9d3e 637f 823e
00000140: 4026 be3e 7b56 7cbe 5597 a83e 8fc1 973e
00000150: a3f3 0a3e 1d49 cb3d 5868 1b3e 3fc1 cf3e
00000160: 6903 b53d 7d40 8e3d de01 fa3d 6b40 99be
00000170: 57ce 9fbd 24f6 90bc 6107 463e f8a7 27bf
00000180: c380 babd c517 a1ba 34b6 90bd ba79 553e
00000190: dcee 0dbe 2a9c e63d e418 013e 2cbf 9bbe
000001a0: 7c98 45be 6526 c6be 9d87 10be 5094 98bd
000001b0: 174c c2be 6e47 ccbc b4cc 8bbc f79a d4bd
000001c0: 02dc b33e 7527 5b3d a59f 663e 98f2 b7be
000001d0: 5a40 13bd 6cdf c4bd 411e b6bc d48a 433e
000001e0: 211d 29be 2863 163c cf20 0dbf 7228 183d
000001f0: 16df 183e 9522 fdba f68f dd3e 05c4 45be
00000200: 8ba5 97be d2cd 5bbc 204d 15bd aa7b 293e
00000210: eaca 653d e376 f7bd f366 673c 913f afbe
00000220: 78e0 ef3d 2432 9b3e ea58 7abd d733 00be
00000230: 3980 afbd dba9 8ebd e74c 083f 0816 ddbd
00000240: e2d3 ca3a bb6e e6be d355 7dbd c53e 51be
00000250: 1b82 9cbe fed7 eb3c c519 d9be ea00 7a3d
00000260: 5062 cc39 fef4 a2bc 2ae1 383e c738 193d
00000270: cb8c 2abe 0da8 c7bd 6cd3 4dbd c8a2 983c
00000280: 46f2 d63e 471c ae3d 47bf 293f 23c2 a2be
00000290: 5c32 d4bd 3cff 6dbd 4a0e b73e 39ac 683d
000002a0: 823d 2fbd a1ad 1ebe ca45 ac3d 3ccf 24be
000002b0: 12ba 153e d108 1abe 2c2c b83e e07d 05bd
000002c0: bec6 02be 937b dfbd d945 c4be b1d3 4b3e
000002d0: 108a 333e de7d 9bbd b61c 25be e80a 22be
000002e0: 0935 7fbd f0bb 8f3d a8ab 153e bd77 72bc
000002f0: 8bf5 683d cb04 9ebe c8b0 87bc 1cb8 df3d
00000300: 87db 0b3e 5824 a5be f72b 933e ed4b 5bbe
00000310: 792f b23e e676 e33d ef2b 87bd 66c1 c1be
00000320: e5c7 d2bd 51a3 fa3e f143 af3c 5f46 24be
00000330: 73ab ea3c 2f44 f83d 6569 bdbc f056 d2bd
00000340: 7298 2dbe 80cc 1f3e c1a4 533e d1d8 54be
00000350: 54c9 93bb 0c1f a6bd 66a2 66be 49d9 0abe
00000360: b33f 0dbe 7d07 48be 0845 5e3e fdb4 b83e
00000370: 819d 213e 31d7 d5be 341b cabe 250e 953e
00000380: f06f 1cbe 6fde b3be 5551 65bd 63d4 bf3e
00000390: f2b4 8e3e ad4d ca3e b526 c23d 46f9 603e
000003a0: 6a62 b93e 0ea8 f5be 2f5c e6bd 9b7e 0b3f
000003b0: ded6 10be 2544 043b c07c 96be c71b 1b3e
000003c0: ef88 febd d0e4 283e 2f9a d63d de73 adbd
000003d0: 06b8 aebe 7cd3 2d3f 8386 933e 4d45 37bd
000003e0: 7d90 a0bd c35c 4e3e a9f0 cb3c 016e 98bd
000003f0: 143e 073e 3c17 01be 6e69 4f3e 7935 423e
-0.11495368 0.5959373 -0.31187785 -0.27467683 0.08425928 0.07672854 0.090853356 -0.14957127
-0.32948515 0.16342902 -0.025989182 0.40523496 -0.22563739 0.04347443 0.15024774 0.057578117
0.42008746 0.2121163 0.62824774 -0.11288051 0.28882736 -0.223279 -0.34390292 -0.19071856
0.03374054 -0.52314526 0.036072604 0.08127136 0.07588192 -0.25604188 -0.17617014 -0.09013726
-0.2748678 -0.31884736 0.0647336 -0.120960444 0.05631269 0.36444074 0.19787882 -0.18857938
-0.52323854 -0.1747168 0.066158466 -0.08588718 -0.08586543 -0.088249415 -0.35613224 0.26066193
0.2667148 -0.18669125 0.19710013 0.17237046 -0.26859215 -0.025414174 -0.06239626 0.23217104
0.16170436 -0.09675197 0.04407604 0.0041862195 -0.060131002 0.23431797 0.26938698 0.22347544
0.063683644 0.02783459 -0.108846284 -0.31905237 0.16270392 -0.32661164 -0.1840265 -0.3139915
0.13646661 0.12804648 -0.16244088 -0.06463874 0.08327583 -0.22925244 0.30671403 0.25487813
0.37138557 -0.24642365 0.32927957 0.2963986 0.13569503 0.099260546 0.15176523 0.40577123
0.08838541 0.06945894 0.122073874 -0.2993196 -0.07803028 -0.017695494 0.19338752 -0.65490675
-0.091065906 -0.0012290409 -0.070660025 0.20847216 -0.13860649 0.11260255 0.12607151 -0.3041929
-0.1929645 -0.38701168 -0.14114232 -0.07450163 -0.37948677 -0.024936404 -0.017065383 -0.1038112
0.3512879 0.053504426 0.22521837 -0.35927272 -0.035950042 -0.09612927 -0.022231223 0.19095927
-0.16515018 0.009178914 -0.55128187 0.037147947 0.1492885 -0.0019312674 0.43273896 -0.19313057
-0.29618487 -0.013415771 -0.036450505 0.1655108 0.056101717 -0.12083223 0.014123666 -0.34228185
0.11712736 0.30311692 -0.06111995 -0.12519775 -0.085693784 -0.06965991 0.53242344 -0.10795218
0.0015474523 -0.45006356 -0.061849426 -0.20434101 -0.30568013 0.028789517 -0.42402473 0.061036028
0.0003898316 -0.019892212 0.18054643 0.037407663 -0.16655271 -0.0974885 -0.050250456 0.018632308
0.41981715 0.08501487 0.6630749 -0.3178874 -0.10361168 -0.05810474 0.3575309 0.05680487
-0.042783268 -0.15495922 0.08411749 -0.16094679 0.14621761 -0.15042426 0.359712 -0.032590747
-0.12771127 -0.10912242 -0.3833454 0.19904973 0.17533135 -0.07592367 -0.16124234 -0.15824473
-0.062306438 0.07018268 0.14616263 -0.014799056 0.056874793 -0.30863032 -0.016563788 0.10923788
0.13657962 -0.3225429 0.2874448 -0.21415682 0.34801844 0.111066625 -0.066001765 -0.37842864
-0.10292033 0.48952726 0.021394702 -0.1604247 0.028646206 0.1212238 -0.023121545 -0.10270488
-0.16952685 0.15605354 0.20668317 -0.20785834 -0.004510084 -0.081113905 -0.22522888 -0.1355945
-0.1379383 -0.19534107 0.21706021 0.36075583 0.15782739 -0.4176574 -0.3947388 0.29112354
-0.15277076 -0.3513064 -0.055985767 0.37466726 0.27872425 0.39512387 0.09480039 0.2197009
0.36207896 -0.47979778 -0.112480514 0.5449006 -0.14144465 0.002018222 -0.29392052 0.15147315
-0.12428462 0.16493535 0.10478627 -0.084693655 -0.34124774 0.67900825 0.28813562 -0.044743825
-0.07840059 0.20152573 0.02489503 -0.074428566 0.13207275 -0.1260652 0.20255062 0.1896571

net.0.bias f4 [256]
00000000: 826e e1c0 be79 cec0 8c7f d3c0 98d7 ddc0
00000010: dde4 06c1 50a7 f7c0 3747 b2c0 23ce fec0
00000020: 3672 c6c0 a39e e0c0 aefa fdc0 0c51 f0c0
00000030: 1c1e d0c0 5719 b9c0 13e9 bcc0 143d c6c0
00000040: 1edf b3c0 faf1 afc0 98df afc0 76f5 ccc0
00000050: 8676 d4c0 39f5 f0c0 1d51 01c1 b9bc d5c0
00000060: ca1a d7c0 6c4a cec0 9aca 02c1 8f46 fec0
00000070: 7772 e6c0 499a 0ac1 6f7f e8c0 835c f4c0
00000080: 55ab e4c0 28eb f9c0 8195 02c1 bbde f2c0
00000090: d5a9 cac0 5e17 d4c0 689c e8c0 4a88 e4c0
000000a0: b330 ffc0 ad0d bfc0 abaa bfc0 7f83 a5c0
000000b0: 0244 a4c0 4153 fec0 bb6c efc0 fd42 d0c0
000000c0: 15d1 f8c0 5228 ddc0 b23a 06c1 7847 fac0
000000d0: 845c fec0 3bd8 e5c0 6a37 ccc0 d79a 00c1
000000e0: bc17 dfc0 c8d7 ddc0 0b31 afc0 0453 d7c0
000000f0: 6686 e9c0 7a8c 07c1 4348 c2c0 03b8 03c1
00000100: 031b ddc0 5a95 01c1 e065 f1c0 8d0f c8c0
00000110: 8490 92c0 35bd c3c0 8f8c eac0 0ce3 bdc0
00000120: 336a dac0 c465 cbc0 13a1 eac0 05e4 d1c0
00000130: 3ad8 fbc0 44db 82c0 f6e3 eec0 cf92 c5c0
00000140: 84ee 06c1 149a f3c0 4b97 fec0 9e57 ffc0
00000150: f86b edc0 0747 a4c0 2ff6 dfc0 c177 d8c0
00000160: eeab f0c0 c077 bfc0 518d d7c0 4d9a c5c0
00000170: 18eb cfc0 52c1 c0c0 6411 b7c0 25ab efc0
00000180: 8237 dec0 cd11 d5c0 b50e d3c0 0680 04c1
00000190: 84d6 e5c0 b141 e5c0 3a55 01c1 6386 ffc0
000001a0: 95f2 eac0 845e e3c0 bd11 e9c0 919f b9c0
000001b0: 2549 f1c0 b10e edc0 2ab7 08c1 4c79 ffc0
000001c0: 4d27 06c1 37d7 c8c0 f17d b7c0 65dc c6c0
000001d0: cf77 06c1 90d5 d3c0 327f dfc0 1fd8 06c1
000001e0: 6156 ebc0 1739 04c1 8dfe cdc0 f962 b4c0
000001f0: 423d 03c1 067e 04c1 1c9a d9c0 9e9e c7c0
00000200: 41c1 ebc0 2ab9 bbc0 e6a6 03c1 2025 bec0
00000210: ef74 04c1 99d6 f3c0 016d 9dc0 9d78 d3c0
00000220: f42e 01c1 4a5e e2c0 e625 bdc0 f13a bfc0
00000230: 6b0a d2c0 3bf1 01c1 fd5e d5c0 9028 e4c0
00000240: 3be9 07c1 493f dfc0 9e1c b8c0 77dd fec0
00000250: 58c1 e6c0 8057 aec0 5619 c9c0 53f4 d0c0
00000260: 6033 a0c0 b3d8 d0c0 9932 00c1 dbae dbc0
00000270: 664d d0c0 c733 b7c0 dfdd cec0 47a4 ddc0
00000280: 2d73 e6c0 937b 03c1 7e28 efc0 4bb3 e2c0
00000290: 363b fec0 654d aac0 0d81 bec0 af87 04c1
000002a0: 1be9 abc0 3409 d4c0 0661 01c1 605b ffc0
000002b0: cd14 f2c0 5f5e c8c0 1f7b 0ac1 86f2 f1c0
000002c0: 0ba1 afc0 6d5d e5c0 5e28 bdc0 4993 01c1
000002d0: e2fc fdc0 f90d 9ac0 4016 04c1 5a5e fec0
000002e0: 6a47 fac0 4cf1 c9c0 abab cec0 622d cfc0
000002f0: 39fe e0c0 c1d2 cac0 779e aec0 08aa e2c0
00000300: 85b2 01c1 3a05 fac0 a873 e5c0 9161 e2c0
00000310: 7ca9 b2c0 a131 9fc0 73cd f6c0 ee06 cfc0
00000320: 1c91 e0c0 27de d3c0 e45f b2c0 6686 02c1
00000330: bacb ebc0 9d4b fac0 3d9d adc0 839c e7c0
00000340: a3df dcc0 fd66 dfc0 bdac aec0 a84b fec0
00000350: 7713 01c1 0cf4 dbc0 c5a6 e4c0 75cc c9c0
00000360: c199 e2c0 e672 ecc0 31f3 01c1 ac17 07c1
00000370: acfd 9fc0 af21 cdc0 e7b9 ecc0 14db b8c0
00000380: 8348 b1c0 a1f7 d6c0 272f e8c0 16fd b1c0
00000390: fdc8 cac0 41c3 eec0 ed46 92c0 e521 ecc0
000003a0: 79d6 e6c0 199e dfc0 1973 d2c0 e290 dfc0
000003b0: b53c 01c1 7771 0bc1 2a5b bec0 4107 c8c0
000003c0: 87f9 03c1 1153 d5c0 d70c e7c0 d765 bbc0
000003d0: a455 fac0 c96c e8c0 9dc4 fdc0 60f2 bcc0
000003e0: 8fbf c8c0 5f40 7bc0 e125 bbc0 520f b4c0
000003f0: 5edb d9c0 8c98 f5c0 b9ce a3c0 b675 e3c0
-7.0447397 -6.452361 -6.6093197 -6.9325676 -8.430875 -7.739174 -5.571193 -7.962663
-6.201442 -7.019365 -7.9368505 -7.5098934 -6.5036755 -5.7843432 -5.9034514 -6.194956
-5.620986 -5.498288 -5.496044 -6.4049635 -6.639468 -7.5299344 -8.082303 -6.6792874
-6.72202 -6.4465847 -8.174463 -7.946113 -7.2014728 -8.662667 -7.265556 -7.636293
-7.1459146 -7.8099556 -8.1615 -7.589689 -6.3332314 -6.6278524 -7.2690926 -7.141637
-7.9746947 -5.9704194 -5.9895835 -5.172302 -5.1333017 -7.947663 -7.482023 -6.5081773
-7.7755227 -6.911172 -8.38933 -7.821224 -7.9487934 -7.1826453 -6.3817644 -8.037803
-6.9716473 -6.9325905 -5.4747367 -6.7288837 -7.297656 -8.471796 -6.071321 -8.232425
-6.9095473 -8.098963 -7.543686 -6.2518983 -4.580141 -6.1168466 -7.329658 -5.9339657
-6.825464 -6.3561726 -7.3321624 -6.5590844 -7.870145 -4.089266 -7.4653273 -6.174171
-8.433231 -7.6125584 -7.9559684 -7.9794455 -7.41943 -5.1336703 -6.9988017 -6.7646184
-7.5209875 -5.983368 -6.7360005 -6.1750855 -6.497448 -6.0235987 -5.720873 -7.4896417
-6.944276 -6.658423 -6.5955453 -8.281256 -7.182436 -7.164269 -8.083307 -7.9851546
-7.342112 -7.1052876 -7.2834153 -5.8007283 -7.540179 -7.4080434 -8.544718 -7.9835567
-8.384595 -6.2762713 -5.7341237 -6.2144036 -8.40425 -6.6198196 -6.984277 -8.427764
-7.3542943 -8.263938 -6.437323 -5.6370816 -8.2024555 -8.280767 -6.800062 -6.2381124
-7.3673406 -5.866353 -8.228247 -5.942032 -8.278548 -7.619946 -4.919556 -6.6084733
-8.073963 -7.07401 -5.9108763 -5.975945 -6.5637717 -8.121394 -6.6678452 -7.1299515
-8.494441 -6.9764752 -5.7534933 -7.9645343 -7.2111015 -5.448181 -6.284343 -6.5298247
-5.0062714 -6.5264525 -8.012353 -6.8650947 -6.509448 -5.7250705 -6.464584 -6.9263034
-7.2015595 -8.2176695 -7.473693 -7.0843863 -7.944728 -5.3219476 -5.9532533 -8.283126
-5.3722053 -6.6261234 -8.086187 -7.979904 -7.565039 -6.26152 -8.655059 -7.560855
-5.4884086 -7.1676545 -5.9111776 -8.098458 -7.9371195 -4.8142056 -8.255432 -7.9490175
-7.8212175 -6.310705 -6.4584556 -6.47429 -7.031033 -6.338227 -5.456844 -7.083256
-8.106084 -7.813138 -7.170368 -7.07441 -5.583189 -4.974808 -7.7125793 -6.469596
-7.0177135 -6.620868 -5.5742054 -8.157812 -7.368619 -7.82173 -5.425444 -7.2378554
-6.9022994 -6.981322 -5.458586 -7.9467354 -8.067252 -6.873541 -7.1453576 -6.306208
-7.081269 -7.3890257 -8.121873 -8.443279 -4.999716 -6.410362 -7.397693 -5.776743
-5.5401015 -6.717728 -7.255756 -5.5621443 -6.3370347 -7.4613347 -4.571158 -7.3791375
-7.2136807 -6.988049 -6.57655 -6.986436 -8.077321 -8.715201 -5.9486284 -6.2508855
-8.24842 -6.66639 -7.2203174 -5.8561816 -7.822954 -7.2632794 -7.9302506 -5.904587
-6.2733836 -3.925804 -5.848374 -5.62687 -6.808028 -7.6748714 -5.1189847 -7.108119

net.3.weight f4 [5, 256]
00000000: 324f 52bd 371e 223d 9c10 c53c 288b 23bd
00000010: 9d10 0fbd c6ad 23bc 19e8 bc3b 9332 9dbb
00000020: 6e93 dc3b 3601 98bc 7543 6ebd e63f 17bd
00000030: 11b2 99bb 455a 063d c015 a0bc 3187 c2bc
00000040: aa1c afbb c6de f4bc e353 84bc cfdb 48bd
00000050: 06b8 27bd af92 26bc c970 b4bc 314a f93c
00000060: d2ca 68bd b1b3 f5bb 0f56 acbc b42d b6bc
00000070: 0d5d c63c b44d 98bc b1f6 d5bc 1d51 51bc
00000080: 95b9 90bd 9e21 fbbc 2c81 e8bd 2f72 fcbc
00000090: 4182 92bb cf45 6bbc e896 20bb f669 bfbc
000000a0: 1657 cbbd 083b 18bd 9a19 5d3c b978 6c3d
000000b0: 7eb8 373b b51e 74bd 5529 fdbc 33a5 1ebd
000000c0: 5a64 d1bc 4470 96bb e595 3fbd cdf4 e4bc
000000d0: 5925 3ebd af2e 1abd 3b17 173d f5b6 37bd
000000e0: c4ae adbd 7850 55bc 44fa 80bc 6947 b73c
000000f0: 5e83 76bd 59dc 33bd cc22 f5bc a06a 25bd
00000100: 7e28 34bd f032 0bbd ec3e 3fbd 6c2c 35bd
00000110: 491c 84bc efd6 83bd 2201 7dbd 9327 193d
00000120: 9acc 05bd 8ab8 8cbb 4d2e e1bc cf53 82bd
00000130: 3e6d 04bd cc85 163d eecf 59bd bdbb 2bbd
00000140: b70b 3dbd e65b bc3c b620 4abd 25c6 c4bc
00000150: 594a 593c ecaf 05bd f2f3 72bd 966c 9cbc
00000160: 437f 55bd 70a6 81bd 2c61 1e3d 0984 203b
00000170: 94bb 793c 55f3 9e3c c184 093d 28e3 5cbc
00000180: b000 6fbc 3f4f 69bd 607e e4bc 406c 12bd
00000190: 374d f238 145b 06bd f26d 35bc d4cf 83bc
000001a0: f7e6 26bd 0053 8bbc 0eba dd3c 528f cb3c
000001b0: f870 5abb 4c13 90bd 9bc8 81bd f890 96bd
000001c0: bbb7 96bc 97fd 1cbd bc05 763b 1801 6bbd
000001d0: 72a3 4dbd 9280 b8bc 07ed 373b 9c76 30bd
000001e0: 150f fe3a 8fa4 95bd 1078 2cbd d273 17bc
000001f0: 0894 93bd c9cf 0d3c 78f3 fbbc 9b43 bbba
00000200: 8645 08bb f022 cebb ac65 cfbd 3038 0cbb
00000210: a9b8 52bd d37a 92bc 9bfc babc 20f1 cfbc
00000220: a153 f53c 49f1 1cbd 4a0c 44ba c668 97bd
00000230: 5629 4abc 58f6 55bd c7d6 16bd d065 a3bd
00000240: 1469 0dbd 3965 65bd 23de 993c 25c2 febc
00000250: a72b 19bd ed47 763b 5ac3 773c cb79 42bd
00000260: 081e 0abd fb3d 19bd a7af f3bc ff91 e3bd
00000270: cc28 4bbc 3813 0cbd a83f bd3b f2a4 57bd
00000280: 8181 5bbd aed6 84bc 9d94 01bd 4997 2abc
00000290: 7fce 43bd f8b8 a63c 72aa adbd ea3f 88bd
000002a0: 845d 9ebb b8f1 89bd 0c3e 533d 4fe3 44bd
000002b0: 2ba5 98bd 42f4 be3c 6fc1 babd cc58 293c
000002c0: d4cc e5bc 72b5 c5bc 7d76 823c 5d5f e6bc
000002d0: f3a5 96bd 09de 54bc b89b c5bd 2a61 74bd
000002e0: 9a1c 59bd e779 113d 7bc3 75bc 8562 04bc
000002f0: 5860 22bd 39db 02bd cd8b ff3c bdf1 f0bb
00000300: c857 e8bc 34db 0dbd d5f0 a6bb eba0 653c
00000310: 201b e33c 9f97 983c a34e 92bd 50a0 6ebd
00000320: 00f4 1cbd 2cc4 9a3b 4441 063d 9f18 b3bc
00000330: 897e e5bc a1af b3bd 9368 073d e5c6 333b
00000340: 7ecf 37bd b55b e03c f2bb 88bd 62de dfbd
00000350: fd34 9abc 34db 17bd 6c20 8dbd 7273 73bd
00000360: 6b83 b5bb 76d1 f0bc 4466 83bd fbc4 73bc
00000370: b912 0b3d e5bb 1abd a452 4bbd 1cc1 523c
00000380: cec4 1fbd ab0e 10bd 464b 32bd 3a9b 3aba
00000390: 0134 90bc 7435 173d 5d2a 22bd 59b8 1abd
000003a0: 399f adbd ae2a 52bd 1b65 81bd 3b56 67bd
000003b0: 1879 22bd 9906 05be 607e 9ebb df52 073c
000003c0: 1dd2 53bd 151a c5bc 4ca9 54bd 7ff2 e13b
000003d0: cca4 0ebd ea19 0abd fa7a 46bd d12e 45bd
000003e0: 34f4 22bd 81a7 313d 9794 51bd ce76 d73c
000003f0: 13f4 dfbc 1efb 16bd 0129 ffbc 8e21 39bd
-0.051345058 0.039579596 0.024055772 -0.03992763 -0.034927953 -0.009990161 0.005764973 -0.0047972887
0.006731442 -0.018555265 -0.0581698 -0.036926173 -0.0046904166 0.03280093 -0.019541621 -0.023746105
-0.005343993 -0.029891383 -0.016153282 -0.04903775 -0.040946983 -0.010166808 -0.022026436 0.030430885
-0.05683405 -0.0074982275 -0.02103713 -0.02223859 0.024214292 -0.01859174 -0.026118608 -0.012775687
-0.07066647 -0.030655678 -0.113527626 -0.030816166 -0.004471094 -0.014359905 -0.002450401 -0.023365956
-0.0992872 -0.03716567 0.013494873 0.057732318 0.002803355 -0.059599597 -0.030903498 -0.038731765
-0.025560547 -0.00459102 -0.04677381 -0.027948761 -0.046422336 -0.037642177 0.03688739 -0.044852216
-0.084805995 -0.0130196735 -0.015744336 0.022372918 -0.060183875 -0.04391131 -0.029923819 -0.04038489
-0.04398393 -0.033984125 -0.046690866 -0.044231817 -0.016126769 -0.0643748 -0.06176866 0.037391257
-0.032665826 -0.0042944597 -0.027487898 -0.063636415 -0.032330744 0.036748692 -0.053176813 -0.041927088
-0.04615375 0.02299304 -0.0493476 -0.024020264 0.013262355 -0.032638475 -0.059314676 -0.019094747
-0.05212332 -0.063305736 0.03866689 0.0024492762 0.015242476 0.01940314 0.03357387 -0.013481893
-0.014587566 -0.05696034 -0.027892292 -0.035747766 0.000115538416 -0.032801703 -0.011073576 -0.016090311
-0.04074761 -0.01700735 0.027066257 0.024848614 -0.0033331495 -0.070349306 -0.063370906 -0.07351869
-0.018398156 -0.03832778 0.003754004 -0.05737409 -0.0502047 -0.022522245 0.0028064863 -0.043081865
0.0019383157 -0.07306778 -0.042106688 -0.009243922 -0.07205969 0.008655497 -0.030755743 -0.0014287116
-0.0020793392 -0.006290786 -0.10126814 -0.0021395795 -0.051445637 -0.017880833 -0.02282553 -0.025383532
0.029947104 -0.038316045 -0.0007478638 -0.07393031 -0.012338957 -0.052236885 -0.03682592 -0.079784036
-0.03452404 -0.056004737 0.01878268 -0.031098435 -0.037395146 0.0037579492 0.015122259 -0.047479432
-0.033720046 -0.037412625 -0.029746844 -0.11111831 -0.012399863 -0.034198016 0.0057754107 -0.05264754
-0.0535903 -0.016215649 -0.03163587 -0.010412046 -0.047804352 0.020351872 -0.084797755 -0.06652816
-0.0048329253 -0.06735557 0.051572844 -0.04806834 -0.07453378 0.02330983 -0.09118926 0.010336112
-0.028051771 -0.024134371 0.01592564 -0.028121645 -0.07355871 -0.01299239 -0.096488416 -0.059662975
-0.053005792 0.035516646 -0.015000219 -0.0080801295 -0.03964266 -0.03194735 0.031194592 -0.007353036
-0.02836217 -0.034632877 -0.0050946274 0.014015417 0.027722895 0.018626986 -0.07143905 -0.058258355
-0.038318634 0.0047230925 0.032777086 -0.021862326 -0.028014438 -0.08773733 0.033058714 0.0027431783
-0.044875614 0.02738748 -0.06676473 -0.10931088 -0.018824095 -0.037074283 -0.068909496 -0.05943627
-0.005539348 -0.029396754 -0.0641599 -0.014878507 0.033953402 -0.037776846 -0.04963936 0.012863424
-0.039006047 -0.03517024 -0.043528818 -0.00071184675 -0.017602922 0.03691621 -0.039591182 -0.037773464
-0.08477635 -0.051310234 -0.063181125 -0.05647872 -0.039666265 -0.12990798 -0.0048368424 0.008259504
-0.05171405 -0.024060288 -0.051919267 0.006895363 -0.03482513 -0.03371612 -0.048457123 -0.04814035
-0.03978367 0.043372635 -0.051167097 0.026301768 -0.027338063 -0.036860578 -0.031147482 -0.045198016

net.3.bias f4 [5]
00000000: eea9 863e ba69 60bd b790 033c 82f7 0cbe
00000010: 2709 363e
0.2630152 -0.05478833 0.008030108 -0.13766292 0.17776929
