training/models/emotion_classifier_all-mpnet-base-v2.pt (torch, 796159 bytes, 4 tensors)

net.0.weight f4 [256, 768]
00000000: cf4c 33be 52d1 3c3e 9e99 603e 8e80 343d
00000010: 45ee 2c3d e3a9 1bbe 4080 0d3e 697b eabb
00000020: 83a5 303e c799 3bbd 218b 803e 8dca 49bd
00000030: 79a3 f3bd be5f 563e c069 93bd b829 9a3d
00000040: 4aee 94be 4ba2 84be b5a5 cc3d 84c3 39bd
00000050: e33a 9c3c 91c7 c43c 9b9a 3ebe db4e cfbc
00000060: d6c8 763b a080 633e 4cbe 6ebe 392f 01be
00000070: 8868 91bd ab9b 333c 9bfa c1bc 0bd6 de3d
00000080: e0be ee3d 8875 803e 1dfe 693e b781 5b3e
00000090: baab 8abc 0640 19bc 2232 a7be ba82 92bd
000000a0: d7cc 553e 0d90 84be 4078 7cbc 23da fe3d
000000b0: d7df 02be f414 313e 2ccc ed3d 3c50 e4bd
000000c0: 1204 293c c467 94bd bc1c 4bbd 401d 323d
000000d0: 9235 dbbd 361b 14bd d6d3 9d3e 4d19 923e
000000e0: 782f b9bc 3766 0a3c 140e 0abc 7524 793e
000000f0: da7a 873d 059d a33d 9499 58bd 2c25 3dbe
00000100: 7989 803e 31f5 d5bc a75d 28bd ecac 6b3e
00000110: 9bba d7bd d0a1 f53d 6025 2d3e 4639 853e
00000120: 3fd5 e13d dfa3 eebd 83aa eebd b1dc e83c
00000130: 5d86 8e3d a50f d83d 3e0a 96be 332a 3cbe
00000140: fa66 8e3d ce12 4abe 7159 803d 0af4 653e
00000150: 8d0f 2dbf 6197 703e 84b6 813d 8c0b b3be
00000160: 68c3 223e 21ae 0cbe dd07 5a3e aa58 163e
00000170: 8c7f 253e b34a d2bd 5dbf 183e d960 aebd
00000180: e26d cbbd 642a 3c3e c434 29bd a25d d8be
00000190: ff50 b43e 738d b9bd 1b40 ac3e bbdb f93d
000001a0: 61e9 cbbd b385 80bd 3ee0 e03d 7656 f2bc
000001b0: 9619 d03d 92a0 733d b222 853e bc0b 2d3e
000001c0: d311 113e 3edc 1bbc 9922 27be 3389 9c3c
000001d0: 00ce 9fbd 211c 0b3e 9b12 12bd a182 683d
000001e0: 612e 053d 8eae 9bbe 794e a3bd 3179 7d3d
000001f0: abc0 563c 59a7 f1be 2db3 4bbe 43b8 aa3e
00000200: 8062 e8bd a86e 14be 3c95 c1be 0dab 9abe
00000210: ec3d f63c 3fde 89be 6aa1 17be 283d 943c
00000220: 5d6d 233e 7e87 35be a3b2 19bd 15d1 c73d
00000230: 2b23 f33e 7d3c e1bd bc3e a03d f380 be3d
00000240: faac 32bd 533f 1e3d 22c1 153e b808 e9bd
00000250: 75c9 98bd 78c2 333e 22f3 19bd 36fb 2abe
00000260: 5b9e 5dbd 8338 e5be 5b31 0e3e b8d1 733c
00000270: 8258 7dbd 1212 cd3e 8a59 3abd 213c 18bd
00000280: e283 b7be b41a a9be 1f7b 85be c955 3d3e
00000290: 61f0 26be 7a88 dcbe 19e9 a2bc 7a12 6c3e
000002a0: 8b8f a23c 4506 adbd 4606 293d d1af c93b
000002b0: a234 773d 48a1 6a3d 724b 393e e16c a5bd
000002c0: 2710 733e 0bad 1a3e 4765 a83c c25d 93be
000002d0: 3431 283d b2ea 183e 1e9c 303d b419 033d
000002e0: 62f0 a53d 89cc 333e 0e2b 7c3d eec5 5bbe
000002f0: dbce c1bd 1325 c6bc 6c38 343e ff30 c8be
00000300: 2436 833d 0981 67bd 5546 873d 7cff 98be
00000310: 7607 2dbe 3736 0e3c dc3d 5fbd 6056 d3bd
00000320: ca47 b3bd 0a97 34be 99c3 6fbd 4a44 bdbd
00000330: e6fc 1abe a6a8 98bb 0319 0e3d 8e5c 313e
00000340: fb34 f9bd b14a 443d d0c9 97bd 08c5 193d
00000350: 919d 3a3e eb17 b43e 25e8 783e 22f6 bfbd
00000360: c04b d5bd 8e15 3c3e d18f a73c a356 453e
00000370: 1469 843c c0e9 983d 090f 4abe 6dc4 563e
00000380: 0fe9 703d 45a7 1abe 1bd6 6f3e f42d 9fbc
00000390: 840a b43d 6f54 27be 8869 8abe d8d1 f33d
000003a0: 5a19 6abe 1275 22be 3696 bc3d 0c6c 7e3e
000003b0: afdd 1abd 122f a03d ebab 4d3d ac1a afbc
000003c0: 7543 b9bd e3f2 0c3d 88c7 ae3d 3768 94bd
000003d0: b95c 86bc 0df5 e1bd 1ea9 14be 8e9f a33c
000003e0: 3884 573e d2cd 253e 97d4 12bc e5fa f13d
000003f0: 74d4 74be 4e2b c7bd 5451 98be 7556 ce3d
-0.17509769 0.18439224 0.219336 0.04406791 0.04221942 -0.15201525 0.13818455 -0.007155825
0.17250638 -0.04580095 0.25106147 -0.049265433 -0.11896414 0.2093496 -0.071979046 0.075274885
-0.2908805 -0.2590507 0.099925436 -0.045352474 0.019071048 0.024020942 -0.18613665 -0.025306156
0.0037656329 0.22217035 -0.2331478 -0.1261567 -0.07100016 0.010962407 -0.023679068 0.10880669
0.116575 0.2508967 0.22850843 0.21436201 -0.016927589 -0.009353643 -0.32655436 -0.0715384
0.20878921 -0.25891152 -0.015409529 0.1244395 -0.127807 0.17293149 0.11611208 -0.11148116
0.010315912 -0.07246354 -0.04958795 0.043484926 -0.10703577 -0.036158763 0.3082568 0.28534928
-0.022605643 0.0084472215 -0.008426208 0.24330314 0.06615229 0.079889335 -0.05288084 -0.18471211
0.25104883 -0.026117893 -0.04110494 0.23015183 -0.10533639 0.11993754 0.16908789 0.2602026
0.110270016 -0.1165235 -0.11653616 0.028425546 0.069592215 0.10549859 -0.2930469 -0.18375473
0.06953235 -0.19733736 0.062670596 0.22456375 -0.67601854 0.23495246 0.0633364 -0.34969747
0.15894854 -0.137383 0.21292062 0.1468226 0.16161937 -0.10268154 0.1491675 -0.08514566
-0.09933068 0.18375546 -0.041310087 -0.42258936 0.35218045 -0.090601824 0.3364266 0.122001134
-0.09956623 -0.06275501 0.10980271 -0.029582243 0.1016113 0.059479304 0.26003033 0.16899008
0.14166956 -0.009512959 -0.16321792 0.01910839 -0.07802963 0.13584949 -0.035662275 0.056765202
0.032514933 -0.30406612 -0.07973952 0.061883155 0.013107459 -0.4719799 -0.19892569 0.33343706
-0.113469124 -0.14495337 -0.3780917 -0.30208626 0.030058824 -0.26927373 -0.14807668 0.018095568
0.15959688 -0.17727467 -0.037523877 0.09756676 0.4748777 -0.10997865 0.07824466 0.09301939
-0.043621995 0.03863461 0.14624456 -0.11378616 -0.074603 0.17554653 -0.037585385 -0.16697392
-0.054106098 -0.44769678 0.13886015 0.014881544 -0.061851986 0.4005285 -0.045495547 -0.03716672
-0.35842806 -0.33028185 -0.26070496 0.18489756 -0.16302635 -0.43072873 -0.01988654 0.23053923
0.019843837 -0.084484614 0.04126575 0.006154992 0.06035293 0.057282716 0.18095186 -0.08077408
0.2373663 0.15105073 0.020556105 -0.2878247 0.04106255 0.14933279 0.043117635 0.032006934
0.0810249 0.17558493 0.061564498 -0.21462223 -0.09463283 -0.0241876 0.17599648 -0.3909988
0.06406811 -0.056519542 0.06605212 -0.2988242 -0.16897377 0.008679918 -0.054502353 -0.10319209
-0.08753927 -0.17635742 -0.058536146 -0.09241541 -0.15135536 -0.0046587763 0.03469182 0.17320463
-0.12168308 0.047922794 -0.074115396 0.03754142 0.1822417 0.35174498 0.24307306 -0.09373118
-0.10414839 0.18367597 0.02045432 0.1927133 0.016163386 0.07466459 -0.19732298 0.20973368
0.058816012 -0.15102871 0.23421519 -0.019431092 0.08791068 -0.16340803 -0.2703364 0.11905259
-0.22861233 -0.15864971 0.09208338 0.24845904 -0.03780907 0.07821478 0.050212782 -0.021375023
-0.090460695 0.034411322 0.08534151 -0.0724644 -0.016401635 -0.11033068 -0.14517638 0.019973543
0.21046531 0.16191795 -0.008961818 0.118154325 -0.2390917 -0.097250566 -0.29749548 0.10075084

net.0.bias f4 [256]
00000000: 9aa0 f2c0 b1d8 e6c0 83ac f0c0 9ed3 d6c0
00000010: 2969 07c1 c43c c6c0 6c46 efc0 cf0b fdc0
00000020: d7fd c3c0 6261 f4c0 f935 a5c0 8277 bac0
00000030: 0b03 dcc0 47a4 c7c0 790c bbc0 f840 d0c0
00000040: 532f cdc0 bc93 c9c0 243d 07c1 84c4 c6c0
00000050: 332c fcc0 f403 ddc0 7870 07c1 c75b 00c1
00000060: 5735 ffc0 1a93 c5c0 d3e8 9fc0 f555 07c1
00000070: e40c fac0 7bc9 c9c0 85f2 fdc0 963f bac0
00000080: 799a cac0 5da2 c7c0 a7c8 cac0 888d 05c1
00000090: 58ad b6c0 490f f2c0 7226 c3c0 d254 d1c0
000000a0: 452e dac0 0f8f 9bc0 23c4 f2c0 f2ac dfc0
000000b0: 9f0f 9bc0 3125 bec0 0c1d d8c0 a5c3 05c1
000000c0: f369 eec0 3576 dec0 1b8d ffc0 6a16 c5c0
000000d0: 24b1 f2c0 5def 9dc0 3919 dac0 1c8c fdc0
000000e0: 7f05 f9c0 a665 ecc0 53fb c7c0 2261 cec0
000000f0: f9f7 03c1 ad5a fbc0 028a e0c0 de86 c8c0
00000100: 9108 bdc0 7d43 f8c0 5334 02c1 9de9 edc0
00000110: e44a fbc0 c739 cbc0 a0ea d5c0 8bad a9c0
00000120: b6ed e0c0 6e69 9ac0 7384 b6c0 0f2e e6c0
00000130: f504 bec0 8bbd 07c1 15bf b4c0 cb84 04c1
00000140: 563e d5c0 9a3f f1c0 0eb8 e6c0 aa65 ccc0
00000150: 4ad7 e2c0 0885 ffc0 3dba 04c1 68c5 ddc0
00000160: 37ed fac0 c2ef d2c0 6c16 bdc0 e2c6 cdc0
00000170: 41d3 a0c0 56a2 dcc0 6f38 afc0 9f45 c9c0
00000180: 9070 f8c0 bb73 cec0 5bb9 b5c0 82b2 c1c0
00000190: 3148 ccc0 a76a f7c0 c07d c5c0 7495 f2c0
000001a0: d34c 07c1 24dd d1c0 e95e bbc0 f5ac cdc0
000001b0: 342a d3c0 a91d d9c0 50f3 aec0 fba4 edc0
000001c0: fb3e efc0 095b ccc0 77ae f0c0 75c0 e0c0
000001d0: df4c f8c0 7d49 f8c0 b0cf 01c1 fe52 cbc0
000001e0: 0b54 d4c0 da0e 07c1 62c6 eac0 b31a ffc0
000001f0: 454c f9c0 f2af e1c0 c08c d7c0 1c4a f4c0
00000200: f308 adc0 1c86 bdc0 9c69 ddc0 a44f f8c0
00000210: 1054 02c1 02e0 06c1 623c edc0 71ce d9c0
00000220: fa5e f8c0 751f ddc0 4827 0ac1 abf5 fac0
00000230: 5be4 eec0 5ab6 cec0 439c bac0 3aeb cbc0
00000240: fabe fac0 7974 dfc0 c810 e8c0 ab4f ebc0
00000250: d6ca 02c1 7638 04c1 4e6c d6c0 dcc1 dec0
00000260: ecf6 bfc0 320f c6c0 ec13 cec0 9be2 eac0
00000270: e479 b5c0 3951 ffc0 1c37 f8c0 087b d9c0
00000280: 3c46 d5c0 b76d fac0 a322 f4c0 4fd4 d8c0
00000290: eef0 dcc0 43ca d4c0 870f c6c0 053b b8c0
000002a0: 2f84 9ac0 1bf1 dbc0 2fbe c5c0 e3dc 06c1
000002b0: d7bc c5c0 218e cac0 916e e5c0 d75e fdc0
000002c0: 8ceb e7c0 95ca a9c0 891a a7c0 cfff eac0
000002d0: 0688 cec0 94f6 f2c0 5bca eec0 28a8 e6c0
000002e0: 5a7d f1c0 d209 08c1 3731 b5c0 bdfc dac0
000002f0: 03c3 99c0 74cd ccc0 58df b8c0 8bc5 b6c0
00000300: 6728 c2c0 ce00 d2c0 d772 f0c0 f1b5 edc0
00000310: 8f28 ffc0 9740 ebc0 e638 06c1 ffa3 07c1
00000320: 2106 b2c0 becc 01c1 a56f b7c0 e5a2 f6c0
00000330: cd5a fec0 9fe0 fec0 f8c8 eec0 293b c8c0
00000340: 8caa f0c0 03d5 02c1 acdc f3c0 e96c f9c0
00000350: 3702 03c1 a9dd bbc0 63db efc0 f49d f2c0
00000360: 2710 d9c0 7730 f8c0 5f1d b1c0 3251 b4c0
00000370: f89b e4c0 76cc 06c1 f7b4 fbc0 2bf9 ccc0
00000380: ea86 93c0 88c5 bdc0 76e7 fdc0 2ceb 06c1
00000390: 3644 ffc0 274c f4c0 c349 aec0 0cc4 e0c0
000003a0: 8e39 a6c0 fda6 d8c0 9893 d7c0 ad41 07c1
000003b0: 7364 93c0 44f4 d7c0 ebef cdc0 b103 dfc0
000003c0: 88aa ffc0 e297 f0c0 529d e6c0 4eb6 e7c0
000003d0: ed87 d1c0 a601 9ac0 ae06 b0c0 e3a6 bdc0
000003e0: 4fb2 ebc0 2ab6 f0c0 a672 cdc0 3a2a 02c1
000003f0: e72c 8ac0 4b33 06c1 b87c d4c0 8e1f d9c0
-7.5821047 -7.2139516 -7.5210586 -6.713332 -8.463174 -6.1949177 -7.4773464 -7.9076915
-6.1247363 -7.6368876 -5.1628385 -5.8270884 -6.8753715 -6.2388034 -5.8452725 -6.5079308
-6.412027 -6.299284 -8.452427 -6.2114887 -7.8803954 -6.9067326 -8.464958 -8.022407
-7.975261 -6.1742067 -4.997171 -8.458486 -7.8140736 -6.305845 -7.9358544 -5.820262
-6.3313565 -6.2385697 -6.3369937 -8.347054 -5.70866 -7.564366 -6.098443 -6.541604
-6.818148 -4.861213 -7.5864425 -6.9898615 -4.845657 -5.94204 -6.7535458 -8.360265
-7.4504333 -6.9519296 -7.985975 -6.158986 -7.5841236 -4.935469 -6.815579 -7.923353
-7.781921 -7.3874083 -6.249429 -6.449357 -8.24804 -7.854819 -7.0168467 -6.2664633
-5.9072957 -7.7582383 -8.137774 -7.4347672 -7.852892 -6.350803 -6.6848907 -5.3024344
-7.0290174 -4.82537 -5.703668 -7.1931224 -5.938105 -8.483775 -5.6483254 -8.28242
-6.6638594 -7.539014 -7.2099676 -6.38741 -7.0887804 -7.984989 -8.295468 -6.9303474
-7.841457 -6.5917673 -5.908987 -6.4305277 -5.025788 -6.8948164 -5.475639 -6.2897487
-7.7637405 -6.4516273 -5.6788764 -6.0530405 -6.3838124 -7.731769 -6.1716003 -7.580744
-8.456256 -6.5582447 -5.8553357 -6.427363 -6.5989017 -6.7848706 -5.467201 -7.426389
-7.476438 -6.3861127 -7.521297 -7.0234933 -7.7593837 -7.7589707 -8.113205 -6.353881
-6.635259 -8.441126 -7.3367167 -7.972009 -7.7905602 -7.0527277 -6.7359314 -7.6340466
-5.4073424 -5.922621 -6.919142 -7.7597218 -8.145523 -8.429689 -7.413621 -6.8064504
-7.761594 -6.91009 -8.63459 -7.842489 -7.4653754 -6.4597597 -5.831575 -6.372464
-7.8358126 -6.982968 -7.2520485 -7.353475 -8.1745205 -8.263784 -6.700721 -6.9611645
-5.998892 -6.189355 -6.439932 -7.340162 -5.671129 -7.978665 -7.756727 -6.7962685
-6.6648235 -7.825893 -7.629228 -6.7759166 -6.9044104 -6.64969 -6.1893954 -5.7572045
-4.8286357 -6.873182 -6.179466 -8.428927 -6.1793017 -6.3298497 -7.169747 -7.917827
-7.2475033 -5.3059793 -5.221989 -7.3437266 -6.4541044 -7.5926 -7.4622016 -7.208027
-7.5465517 -8.502398 -5.6622577 -6.843352 -4.805055 -6.4000797 -5.7772636 -5.711614
-6.067432 -6.562598 -7.5140185 -7.4284596 -7.973701 -7.3516345 -8.388891 -8.477538
-5.563248 -8.112486 -5.7323785 -7.7073846 -7.948584 -7.9649196 -7.4620323 -6.2572217
-7.5208187 -8.177005 -7.6206875 -7.7945447 -8.188041 -5.870808 -7.4955306 -7.5817814
-6.7832217 -7.755916 -5.5348353 -5.6349115 -7.144039 -8.424917 -7.8658404 -6.405416
-4.610219 -5.9303627 -7.9345045 -8.432415 -7.9770765 -7.634296 -5.446504 -7.0239315
-5.1945257 -6.7703843 -6.736767 -8.453534 -4.606012 -6.7485676 -6.435537 -6.9692006
-7.989567 -7.5185404 -7.206704 -7.241004 -6.5478425 -4.812701 -5.5008154 -5.926622
-7.365516 -7.522237 -6.420245 -8.135309 -4.3179812 -8.387523 -6.6402245 -6.785102

net.3.weight f4 [5, 256]
00000000: 4893 0ebd 6e1d 21bd 9ecb 6e3c b72e e3bc
00000010: cc33 7abd e2a1 2e3b a94b 59bc 2f64 7fbc
00000020: aa24 37bd c586 67bc 958d e7bb 7ad5 f3bc
00000030: d5e8 a8bc af8e 0cbd e557 92bc 791c 06bb
00000040: ea37 d0bc 311f 563c b913 0cbd 9eb8 7ebd
00000050: b3ad d1bc 0f6b 333c a1cf 30bd 7d33 76bd
00000060: 900d 43bd ceb1 083b 2ff7 a33c 50b0 0abb
00000070: 4018 8e3b 818f 73bd 7017 b1bc ad74 b53c
00000080: 366a 45bd b326 c3bc 737a ecbc 3048 84bc
00000090: d644 723d 5b8e 52bd 690f a4bc c63a ffbc
000000a0: ded8 a5bd 20ef 80bc bb9b 9ebc 6172 e43b
000000b0: 0ce2 283d a22c 68bd f232 16bc aae5 dcbd
000000c0: e959 56bd 941a 09bd ade1 19bd 6222 2abd
000000d0: 7cb3 2c3b d887 c63c 4b6c 063d 8ba1 88bc
000000e0: 3c61 0fbd 468f 90bc 6643 c6bc 9fd2 13bc
000000f0: b5ab 3ebd 8b82 afbc 7b37 57bc 472c 33bd
00000100: 981b 86bd 2c02 2abd 0817 28bd ec04 75bd
00000110: e9d1 cbbc 1a3a 903b 9611 f5bc 9c58 b13c
00000120: ee1c 3e3b 29a3 2e3c 4aac ad3c a7ed 94bd
00000130: 6ca3 5fbd ee25 6cbd eb2d 14bc e6eb 42bd
00000140: a403 d53c cc25 70bd 917d 3fbb f3a7 90bc
00000150: 6e7e 8dbd aa3b 8cbd 103c 99bd e19e 97bc
00000160: 7520 96bd b76b 56bb d533 0d3c c774 163c
00000170: dbd1 fe3c 6e19 c3bc 65a4 babc 0861 cb3b
00000180: ffc4 82bc 74d8 8d3b 3747 11bd 1135 a53c
00000190: bf95 a1bb da98 06bd 3186 1cbd aa17 5dbd
000001a0: 033a d4bd 1c00 f6bc 510f 733c 39a7 46bb
000001b0: 1474 843c 5957 203d 5c05 8ebc 83f8 54bd
000001c0: 564c 433c d35d dfbb 6a48 b3bd 16ff b3bd
000001d0: 69e3 9fbc b7ce 1dbc 38a0 c739 30d8 06bd
000001e0: 6244 7ebd 1034 89bd d426 2abc b810 29bc
000001f0: 20c2 00bd 54a5 c0bc 0016 26bd ba4c a7bc
00000200: 6071 62bd 33a6 8c3c b4f8 b0bd 0c66 edbc
00000210: 6983 b0bd 723e e9bb 8785 a1bc 2053 10bd
00000220: 2a44 563b 45db 55bc dab9 50bd aa9c dbbc
00000230: 9469 2fbd af9b 993b e1dc be3b 7673 edbc
00000240: 5d0d ed3c 1f4a 98bc 32ea 1dbd 35ba cdbc
00000250: 3ac8 49bc f736 49bd fddc 61bc 6bce 93bc
00000260: b3c3 08bd 76ec 64bd 4a0e 00bd 057a 42bd
00000270: 9c29 20ba 8745 dfbc 8c8b 2ebc e2ec 41bd
00000280: 0299 b8bc 3665 bebc eb91 c3bc 9bf3 eabc
00000290: 6ab3 42bc 1e00 cebc d1cc 893c d0fb d23b
000002a0: e851 3e3c ef0b e3bc 2179 063d 792d bcbd
000002b0: d578 56bc 1e53 5abd e91d 8f3c d50b 83bd
000002c0: 66ca 05bd 4fe4 6dbc 27b5 65bd 6cb3 26bc
000002d0: cd21 97bc cca1 94bd b4e1 1fbd e547 333c
000002e0: 3708 3e3c 33f9 0abc dd2a 4bbd 52d8 3bbd
000002f0: 6974 a93c 296f e3bc f61c d7bc 23fd b43c
00000300: 6fa1 98bd 8739 8e3c 1e1b 1cbd d2bd 2f3a
00000310: 96a3 adba 7caf d2bc 4d4b 1cbd cda6 00bd
00000320: 09a1 cebb 7418 2abd 9780 7ebd 45a1 60bd
00000330: 21ee bfbc dbf9 a6bc 9286 e7bc 83e1 71bd
00000340: 2342 3a3c 9b4e 8cbd 7b4b 9cbc e0dd 88bd
00000350: f0e3 45bd a6b4 00bc cbd6 80bd 5a2a 063d
00000360: 9121 7a3b 5503 f23c 8301 6ebd 543c 343c
00000370: 155c 3abd a2fc 8dbd 64bf 473b a639 7a3c
00000380: 605b 25bc b9cc bcbc 5235 85bd b330 7ebd
00000390: 2e55 20bd 828f 95bc 257a 733c 3954 6ebb
000003a0: c0e3 7fbd 11d1 3abd 315c b5bc 0904 7ebd
000003b0: 3179 03bd 6a6d 20bb e04a 88bb ee56 70bc
000003c0: 59a9 acbd 9282 f8ba 174b 5cbc 55a6 bcbb
000003d0: 99b2 87bd 4d52 48bd eb86 b4bc 8a3d 41bb
000003e0: aab3 1e3c acaf ab3c bb55 44bd fd31 a3bd
000003f0: e444 ddbc 3c07 92bc 3ad8 fa3a 7436 ec3b
-0.034808427 -0.039334707 0.014574913 -0.027732236 -0.061084554 0.0026646783 -0.013262668 -0.0155878505
-0.0447127 -0.014131253 -0.0070664384 -0.02976488 -0.020618835 -0.03431576 -0.017864177 -0.0020463748
-0.025417287 0.01306896 -0.034198496 -0.062187783 -0.025595522 0.010950818 -0.04316676 -0.060107697
-0.047620356 0.0020857933 0.020015327 -0.002116222 0.004336387 -0.059463028 -0.021617621 0.022150362
-0.048196994 -0.023822164 -0.028866982 -0.016147703 0.05914768 -0.051405292 -0.02002688 -0.031155955
-0.08098005 -0.015739024 -0.019361367 0.006971643 0.0412312 -0.05668319 -0.00916742 -0.107859924
-0.05233184 -0.033472613 -0.037568737 -0.041536696 0.0026352098 0.024234697 0.03281812 -0.016678592
-0.03500484 -0.017646443 -0.02420206 -0.009022384 -0.04655047 -0.021424552 -0.013135786 -0.043743398
-0.06548232 -0.041505978 -0.04103759 -0.059819147 -0.024880366 0.0044014575 -0.029915612 0.021648698
0.0029008943 0.010659018 0.021200318 -0.07271891 -0.05459921 -0.05765336 -0.009044151 -0.04758825
0.026002713 -0.058629796 -0.002921913 -0.01765821 -0.0690888 -0.068473175 -0.07482159 -0.018508377
-0.073304094 -0.0032718012 0.008618315 0.009183115 0.031105926 -0.023815837 -0.022783468 0.0062066354
-0.015963076 0.0043287817 -0.035468306 0.020166906 -0.004931181 -0.032860614 -0.038213912 -0.053977646
-0.10362627 -0.030029349 0.014835195 -0.0030312075 0.016168632 0.0391458 -0.01733654 -0.05199481
0.011920055 -0.0068166046 -0.08754046 -0.08788888 -0.019517617 -0.009631804 0.0003807561 -0.032921016
-0.062076934 -0.06699383 -0.010385234 -0.0103189275 -0.031435132 -0.023516335 -0.040548325 -0.020422328
-0.055283904 0.017169094 -0.08641186 -0.028979324 -0.086188145 -0.0071180398 -0.019716991 -0.035235524
0.0032694438 -0.013052766 -0.05095849 -0.026808102 -0.042825297 0.0046877484 0.0058246707 -0.02898572
0.028937036 -0.018590031 -0.038553424 -0.025113204 -0.012315804 -0.049124684 -0.013785598 -0.018042764
-0.03338976 -0.05588957 -0.031263627 -0.04747965 -0.0006109716 -0.027254833 -0.010653388 -0.04734505
-0.022533897 -0.02324162 -0.02387329 -0.028680613 -0.011883596 -0.02514654 0.016821297 0.00643871
0.011616208 -0.027715651 0.03283036 -0.09188361 -0.013090332 -0.053301923 0.017470317 -0.06398741
-0.032663725 -0.014519765 -0.056080963 -0.010174613 -0.018448735 -0.07257423 -0.039033607 0.010942434
0.011598638 -0.008482265 -0.049601424 -0.045860596 0.020685392 -0.027762966 -0.026258927 0.022093361
-0.07452666 0.017361416 -0.0381118 0.00067040056 -0.0013247605 -0.025718443 -0.03815775 -0.031409074
-0.006305818 -0.041527227 -0.06213435 -0.0548413 -0.023428978 -0.020382812 -0.02826241 -0.059052955
0.011368307 -0.0685093 -0.01907896 -0.06682944 -0.04831308 -0.00785557 -0.062909685 0.032755233
0.003816698 0.029542604 -0.05810691 0.0110007115 -0.045497973 -0.069329515 0.0030479068 0.0152725335
-0.010092586 -0.023046838 -0.06504311 -0.062058162 -0.039143734 -0.018256906 0.0148606645 -0.0036366119
-0.06247306 -0.045609538 -0.022138687 -0.062015567 -0.032098 -0.0024479278 -0.0041593164 -0.014669163
-0.08430738 -0.0018959811 -0.013445637 -0.005757133 -0.06625862 -0.048906613 -0.02203699 -0.0029486143
0.00968639 0.02095779 -0.04793332 -0.07968519 -0.027010389 -0.017825715 0.0019137927 0.0072086398

net.3.bias f4 [5]
00000000: 78fe df3d bf4e d7bd e0e4 95bd f08b 55be
00000010: 8d91 063e
0.10937208 -0.105130665 -0.07319045 -0.20854163 0.1314146
